models/model.pth (torch_old, 990228 bytes, 32 tensors)

conv_block_1.Conv.weight f4 [16, 3, 3, 3]
-0.047671136 -0.06250888 -0.0965622 0.08763127 0.0070784045 0.028417215 -0.041404724 -0.09841313
-0.010009133 0.009996989 0.18943264 0.023214905 -0.10122583 0.019001413 -0.00019703207 0.12924863
-0.05467532 -0.004609547 0.03213345 -0.06995582 0.09534686 0.09742843 -0.25805172 -0.21896622
-0.060355812 -0.20393752 -0.2627588 0.03649278 0.11400281 0.28795338 -0.09082379 0.10135689
-0.03475131 -0.108284235 0.00086778053 -0.11443845 -0.22035438 -0.04399353 -0.0562149 -0.18035588
-0.18582429 -0.09262694 -0.07870771 -0.08196168 -0.0099042915 0.12111013 0.0222961 0.1866062
0.08195809 -0.23379897 -0.11628144 0.11161961 0.06418351 0.1628511 0.09086786 0.20568274
0.18904418 0.087513514 -0.041262265 0.09763232 0.15586914 0.1540134 0.04560375 0.028975131
-0.06085932 0.03129579 -0.074997 0.031740952 0.025756909 0.15512276 -0.09706905 -0.12487078
-0.031635124 -0.17483816 -0.27333665 -0.11086797 -0.19715543 -0.25946015 0.03903326 -0.05673955
-0.2623833 -0.016345527 0.08330126 0.21557811 -0.087847516 -0.12222019 -0.08444197 0.021596787
0.07297383 -0.14388904 -0.0690372 -0.017007258 0.06416307 -0.25623247 -0.005906193 -0.042099416
0.02954065 0.042614464 -0.24804369 0.10212163 0.31040758 0.3302282 -0.06518276 0.027025536
0.2796574 0.03179079 -0.0006898392 0.23213172 0.0824584 0.04924806 0.25067526 -0.0144978035
0.26240367 0.09347226 0.09960172 -0.033911377 0.28261983 0.06793964 -0.00091129635 0.20022184
-0.03559381 -0.06636701 0.2002768 0.19988753 -0.02442114 -0.00041619435 0.029751794 -0.04050548
-0.076297075 0.11489512 -0.08722057 0.0693803 -0.17709549 0.07086035 -0.10676116 0.15940052
-0.05936988 0.090362884 0.043983787 0.1394057 -0.16150339 -0.058704063 0.09221446 -0.07959378
-0.20505862 -0.18013738 -0.14572676 0.11858792 -0.018369159 -0.2087368 0.11330174 -0.04103009
-0.227703 0.08327543 -0.08358129 0.11034007 0.19793889 0.21795896 0.20512174 0.2612378
0.12319552 0.20362338 0.15150547 0.20955078 0.30262664 0.2819059 -0.10123743 0.14495212
0.22627138 0.02165431 -0.07706738 0.14367543 0.029153036 -0.0023497073 0.11258166 -0.062138043
0.064317964 0.13817072 0.100223765 -0.09320496 0.0028297715 0.16783136 -0.18639147 -0.022973217
-0.043338597 -0.12493713 0.060532916 0.13303488 -0.072310194 -0.039069664 0.0410778 0.14821182
0.0006263854 0.016759273 0.1913988 -0.14719836 0.03167572 0.07652148 -0.174316 0.05374081
0.021544145 0.009240864 0.031240204 -0.19736415 -0.044480417 -0.3427664 -0.31109402 -0.036024988
-0.020103518 0.264527 0.03915211 -0.018064342 -0.04501858 0.2674052 0.015433608 0.30351168
-0.2606559 -0.14938705 -0.032818332 -0.042400632 -0.04531356 -0.011434724 -0.13164866 0.0009276194
-0.15242761 0.019441273 0.17549361 0.34897104 0.16286069 -0.0069114054 0.2613193 0.0009824435
-0.019779887 0.0998787 0.08254075 0.008923901 -0.10549514 -0.044794094 0.18801582 -0.108559184
-0.029228596 -0.101155475 0.09412565 -0.12838933 -0.117959686 -0.15700564 -0.11644496 -0.055561624
0.032161415 -0.11069742 -0.003040371 -0.13165897 -0.056943543 -0.16165607 -0.08283284 -0.011598209
00000000: cf42 43bd a804 80bd 67c2 c5bd 0678 b33d
00000010: f6f1 e73b 38cb e83c 0098 29bd d38c c9bd
00000020: 59fd 23bc 69ca 233c a1fa 413e 2f2d be3c
00000030: 7d4f cfbd daa8 9b3c 659a 4eb9 c159 043e
00000040: 3af3 5fbd af0b 97bb 5d9e 033d ff44 8fbd
00000050: 3745 c33d 8f88 c73d 5b1f 84be ae38 60be
00000060: a837 77bd ffd4 50be 5288 86be 7479 153d
00000070: 4e7a e93d a06e 933e d301 babd 3394 cf3d
00000080: 6457 0ebd 20c4 ddbd c47b 633a b55e eabd
00000090: 94a4 61be 8f32 34bd 9841 66bd 36af 38be
000000a0: b948 3ebe 31b3 bdbd 8231 a1bd 86db a7bd
000000b0: 9c45 22bc 9608 f83d 50a6 b63c b215 3f3e
000000c0: a5d9 a73d ff68 6fbe f724 eebd d298 e43d
000000d0: a572 833d 70c2 263e ee18 ba3d 7f9e 523e
000000e0: cc94 413e 493a b33d 9f02 29bd 74f3 c73d
000000f0: 299c 1f3e b0b5 1d3e ffca 3a3d 415d ed3c
00000100: 9f47 79bd 0430 003d 0798 99bd cd02 023d
00000110: 2700 d33c 80d8 1e3e 23cc c6bd 40bc ffbd
00000120: d593 01bd c608 33be c8f2 8bbe bf0e e3bd
00000130: 1de3 49be f6d7 84be 57e1 1f3d bb67 68bd
00000140: 1b57 86be 0ee7 85bc da99 aa3d 82c0 5c3e
00000150: 66e9 b3bd 944e fabd e9ef acbd bfeb b03c
00000160: 4e73 953d a657 13be 6063 8dbd ce52 8bbc
00000170: ed67 833d e730 83be bd88 c1bb 7070 2cbd
00000180: 3cff f13c 818c 2e3d 2aff 7dbe 2525 d13d
00000190: beed 9e3e ac13 a93e 8a7e 85bd a864 dd3c
000001a0: 412f 8f3e 0f37 023d 53d6 34ba f0b3 6d3e
000001b0: f3df a83d 55b8 493d 8258 803e 3288 6dbc
000001c0: c659 863e 626e bf3d fdfb cb3d a8e6 0abd
000001d0: 8cb3 903e f023 8b3d 10e4 6eba f406 4d3e
000001e0: d1ca 11bd 6deb 87bd 5d15 4d3e 51af 4c3e
000001f0: d80e c8bc a934 dab9 09ba f33c 13e9 25bd
00000200: a441 9cbd 224e eb3d b3a0 b2bd 4217 8e3d
00000210: 8558 35be 3b1f 913d 98a5 dabd e439 233e
00000220: d52d 73bd 2d10 b93d 5828 343d 5ec0 0e3e
00000230: 2561 25be ac73 70bd efda bc3d 1002 a3bd
00000240: e3fa 51be ef75 38be 6539 15be 39de f23d
00000250: eb7a 96bc 1abf 55be be0a e83d 2b0f 28bd
00000260: fa2a 69be 4f8c aa3d ab2c abbd faf9 e13d
00000270: 7eb0 4a3e a230 5f3e 6f0b 523e f6c0 853e
00000280: ef4d fc3d a682 503e 4024 1b3e 7b94 563e
00000290: e1f1 9a3e f855 903e 9255 cfbd 546e 143e
000002a0: afb3 673e 6164 b13c 81d5 9dbd a71f 133e
000002b0: 59d2 ee3c 8cfd 19bb 3791 e63d 7684 7ebd
000002c0: 23b9 833d a07c 0d3e 1e42 cd3d 3ee2 bebd
000002d0: b073 393b fcdb 2b3e 68dd 3ebe 5432 bcbc
000002e0: d083 31bd 0adf ffbd 5df1 773d 4c3a 083e
000002f0: 5e17 94bd 8307 20bd 3241 283d d7c4 173e
00000300: 0334 243a be4a 893c 0cfe 433e 2bbb 16be
00000310: 66be 013d 4bb7 9c3d e57f 32be 531f 5c3d
00000320: 597d b03c fe66 173c 75eb ff3c d419 4abe
00000330: 1931 36bd 147f afbe b747 9fbe f08e 13bd
00000340: 22b0 a4bc 1570 873e f75d 203d acfb 93bc
00000350: 6765 38bd 56e9 883e 3edd 7c3c e265 9b3e
00000360: b174 85be ebf8 18be 846c 06bd 49ac 2dbd
00000370: b69a 39bd b558 3bbc e8ce 06be 7c2b 733a
00000380: fc15 1cbe 4e43 9f3c 99b4 333e 55ac b23e
00000390: f4c4 263e 1279 e2bb a5cb 853e 55c5 803a
000003a0: 6e09 a2bc 348d cc3d 200b a93d 8e35 123c
000003b0: d60d d8bd 037a 37bd 3887 403e 4754 debd
000003c0: cf70 efbc 9a2a cfbd f3c4 c03d 7e78 03be
000003d0: d994 f1bd 16c6 20be b27a eebd 9694 63bd
000003e0: b0bb 033d 54b5 e2bd f640 47bb 9cd1 06be
000003f0: a23d 69bd 2b89 25be 44a4 a9bd 6a06 3ebc

conv_block_1.Conv.bias f4 [16]
0.023083892 -0.16055976 0.27571028 -0.120888 -0.03051401 -0.11673116 -0.15324986 0.13288334
-0.1074515 0.10322376 0.08658399 -0.105142266 0.11823976 0.074577354 0.08969013 0.03080628
00000000: 6e1a bd3c c769 24be e629 8d3e 2194 f7bd
00000010: 84f8 f9bc bf10 efbd 88ed 1cbe 9212 083e
00000020: 880f dcbd fb66 d33d f252 b13d d454 d7bd
00000030: b027 f23d 03bc 983d 75af b73d 745d fc3c

conv_block_2.Conv.weight f4 [32, 16, 3, 3]
0.094910875 0.040793817 0.04178735 0.014909733 -0.05711266 -0.05827999 -0.05101549 -0.07907761
-0.023486158 -0.003954288 -0.09182498 -0.0034817227 0.08419029 0.022757798 0.06819874 0.0881091
0.06949054 0.11179845 -0.04313994 0.030977152 -0.097495094 -0.007330682 0.03682465 -0.02010843
0.016499978 0.06911769 -0.06924704 0.16362724 0.050816737 0.09790441 0.081284866 0.16851293
0.082261875 0.0881972 0.0064476794 0.12810162 0.10039325 0.0409126 0.13696258 0.12554288
0.018075095 0.03217902 0.05655384 0.041457828 -0.0020151136 0.18269148 0.017117947 0.072076134
0.11029657 -0.0035537921 0.060357697 0.050960347 0.104732335 0.09745697 0.05937329 0.16478792
0.06258862 0.14782804 0.08173624 -0.0038339605 0.035241395 0.04146264 0.00033443756 0.12924398
0.03466747 0.13682677 0.058208264 -0.06457631 0.1160504 0.046375126 0.044293758 0.12269076
-0.088278085 0.010486518 -0.13099921 -0.10971585 -0.061386086 0.035008956 -0.103823304 -0.11901714
-0.070096046 0.09571951 0.026760852 0.058346648 -0.017523324 -0.022426624 -0.029021733 0.0897464
-0.044807352 -0.032890726 -0.047547497 0.056039978 0.029545024 0.040226296 -0.073339775 -9.791964e-05
0.058656413 -0.08061041 0.04174542 0.025087882 0.130232 0.042635355 0.057382714 -0.03539754
0.10972765 0.13960172 0.03628633 0.023531817 0.30567408 0.16833015 0.2041903 0.20169976
0.122787856 0.14596404 0.16331317 0.2145798 0.23185264 0.11687219 0.007182297 0.14281815
0.07472088 -0.0630497 -0.041816466 0.057903975 -0.086263455 0.07195706 -0.01055339 -0.1191979
-0.0138069 -0.09224137 -0.0035853717 -0.05815832 -0.052079517 -0.03985883 -0.086531445 0.0825716
-0.084718235 0.021807801 0.008257125 -0.10964489 0.030426951 -0.072923474 -0.099370845 -0.00547982
0.05094473 0.16275987 0.1755396 -0.124419264 -0.024758657 -0.081091404 0.020843755 0.034979813
0.05089488 0.26775187 0.21941382 0.12230018 0.112936504 0.14914829 0.20185132 -0.08386255
-0.018813726 0.022054821 0.018015644 0.084921874 -0.015252881 0.08280903 0.006499615 -0.07126466
0.050102547 0.07255799 -0.082171425 0.21132582 0.12709332 0.19194056 0.22650972 0.12011222
0.10290722 -0.043546803 0.006312074 -0.044880543 -0.06857104 0.040598318 -0.014442014 -0.10073573
0.027933247 0.048352584 -0.0991917 -0.053191964 0.067919694 0.1359743 0.2426824 0.20036586
0.08135924 0.039927844 0.101168826 -0.04817685 0.092953324 0.022524482 0.013464375 0.08488832
0.100037456 -0.017621566 0.059814915 0.0038360616 -0.054040395 0.011064684 0.08833686 0.04409083
0.1138237 0.09305666 -0.12361892 -0.025580548 -0.014415141 -0.08789514 -0.0885722 -0.11276167
0.063306704 -0.047139466 -0.051919505 -0.08979482 -0.14530294 -0.08070792 0.0075507956 -0.01720188
-0.052171964 0.026129574 -0.119739264 -0.07842425 -0.07603761 -0.08058853 0.0029359874 -0.0046261256
-0.08324755 -0.024543796 0.12426732 0.13533305 0.16692677 0.1554149 0.14535284 0.16334082
0.1491155 0.14241235 0.037821285 0.12502779 0.16262558 0.15287732 0.015372622 0.04708322
0.060972225 -0.0049227783 0.09840329 0.045438834 0.05230243 0.06332267 0.07859085 0.17175151
00000000: a260 c23d 6b17 273d 3629 2b3d f447 743c
00000010: f7ee 69bd 00b7 6ebd 9ef5 50bd 71f3 a1bd
00000020: 0b66 c0bc f992 81bb bc0e bcbd 9d2d 64bb
00000030: f56b ac3d 906e ba3c c8ab 8b3d 8b72 b43d
00000040: 0e51 8e3d 96f6 e43d 81b3 30bd ccc3 fd3c
00000050: 82ab c7bd 3836 f0bb 72d5 163d 6fba a4bc
00000060: f62a 873c 938d 8d3d 64d1 8dbd e68d 273e
00000070: 3625 503d 1b82 c83d ae78 a63d a78e 2c3e
00000080: ea78 a83d bca0 b43d 0e47 d33b 122d 033e
00000090: fa9a cd3d f893 273d eb3f 0c3e 508e 003e
000000a0: 3912 943c 26ce 033d 00a5 673d afcf 293d
000000b0: ff0f 04bb 7a13 3b3e f03a 8c3c a79c 933d
000000c0: 2be3 e13d bde6 68bb a239 773d ccbb 503d
000000d0: e87d d63d 8597 c73d 6831 733d 2abe 283e
000000e0: 762e 803d 3c60 173e 5465 a73d 2f43 7bbb
000000f0: 4859 103d bbd4 293d 7357 af39 8958 043e
00000100: 7aff 0d3d 511c 0c3e ca6b 6e3d 9640 84bd
00000110: d5ab ed3d d8f3 3d3d 5f6d 353d 4b45 fb3d
00000120: 24cb b4bd a5cf 2b3c a824 06be b4b2 e0bd
00000130: fa6f 7bbd 8d65 0f3d 50a1 d4bd 42bf f3bd
00000140: 848e 8fbd 9708 c43d 9339 db3c e5fc 6e3d
00000150: 138d 8fbc 0ab8 b7bc fcbe edbc f6cc b73d
00000160: ea87 37bd 6db8 06bd 2ac1 42bd 2d8a 653d
00000170: 6808 f23c 54c4 243d 2a33 96bd 355a cdb8
00000180: b541 703d 1217 a5bd 3ffd 2a3d 1a85 cd3c
00000190: 8a5b 053e 69a2 2e3d 230a 6b3d 03fd 10bd
000001a0: e4b8 e03d c1f3 0e3e faa0 143d ccc5 c03c
000001b0: 5081 9c3e bd5e 2c3e 4317 513e 628a 4e3e
000001c0: 3378 fb3d 9977 153e 913b 273e cfba 5b3e
000001d0: c76a 6d3e b05a ef3d 7959 eb3b ec3e 123e
000001e0: 4307 993d 3320 81bd be47 2bbd b82c 6d3d
000001f0: e5aa b0bd 395e 933d 20e8 2cbc 071e f4bd
00000200: 5636 62bc 0be9 bcbd 8ef8 6abb 6b37 6ebd
00000210: 5551 55bd 0343 23bd 6637 b1bd 4d1b a93d
00000220: c180 adbd 46a6 b23c e448 073c 808d e0bd
00000230: f141 f93c e758 95bd f182 cbbd 1090 b3bb
00000240: 6cab 503d 86aa 263e a7c0 333e 87cf febd
00000250: abd2 cabc 4013 a6bd 86c0 aa3c fe46 0f3d
00000260: 2677 503d c616 893e 04ae 603e 8478 fa3d
00000270: 414b e73d 54ba 183e 1db2 4e3e 21c0 abbd
00000280: 3e1f 9abc 50ac b43c 8b95 933c 85eb ad3d
00000290: 38e7 79bc c897 a93d b9fa d43b 35f3 91bd
000002a0: 5438 4d3d 4999 943d 7e49 a8bd cc65 583e
000002b0: c024 023e 118c 443e 2af2 673e 65fd f53d
000002c0: 05c1 d23d 225e 32bd 84d5 ce3b a9d4 37bd
000002d0: f96e 8cbd 6c4a 263d 329e 6cbc 894e cebd
000002e0: 44d4 e43c 5c0d 463d 0525 cbbd d1df 59bd
000002f0: 7b19 8b3d d93c 0b3e bc81 783e b52c 4d3e
00000300: ac9f a63d 618b 233d 9a31 cf3d 1755 45bd
00000310: 505e be3d 4385 b83c af99 5c3c edd9 ad3d
00000320: 70e0 cc3d 1a5b 90bc 7c00 753d 6f66 7b3b
00000330: 7659 5dbd a648 353c f5e9 b43d 9698 343d
00000340: 661c e93d 7d94 be3d eb2b fdbd 4c8e d1bc
00000350: 7c2d 6cbc 5e02 b4bd 5765 b5bd 97ef e6bd
00000360: f2a6 813d 5015 41bd 8ca9 54bd 59e6 b7bd
00000370: 4bca 14be 324a a5bd aa6c f73b f5ea 8cbc
00000380: 45b2 55bd b00d d63c dc39 f5bd e59c a0bd
00000390: 9bb9 9bbd 990b a5bd b269 403b c196 97bb
000003a0: b17d aabd 1210 c9bc dd7f fe3d bf94 0a3e
000003b0: daee 2a3e 1525 1f3e 60d7 143e d142 273e
000003c0: bcb1 183e 8bd4 113e 7eea 1a3d 4907 003e
000003d0: 5287 263e df8b 1c3e 73dd 7b3c 56da 403d
000003e0: 03be 793d 424f a1bb aa87 c93d 121e 3a3d
000003f0: 133b 563d 51af 813d 3df4 a03d a1df 2f3e

conv_block_2.Conv.bias f4 [32]
-0.04808219 -0.04537775 0.05929608 -0.09430318 0.06250165 0.012395742 0.0018069572 -0.083439246
-0.10669143 -0.013703284 0.03450832 -0.089270435 0.043571625 -0.020053301 -0.052620314 0.07701299
-0.073840015 0.06850389 0.023797164 -0.0020265726 0.014482279 -0.03401055 -0.045549516 0.07590595
0.10948332 0.06363102 -0.037029415 0.036767643 -0.00081419357 0.12072508 -0.0043262476 0.11834766
00000000: d5f1 44bd 05de 39bd 72e0 723d 0722 c1bd
00000010: dd00 803d 8317 4b3c 6cd7 ec3a 32e2 aabd
00000020: 0981 dabd bd83 60bc 9958 0d3d 6bd3 b6bd
00000030: 2978 323d d246 a4bc 6688 57bd fdb8 9d3d
00000040: 6f39 97bd c44b 8c3d 45f2 c23c 3fd0 04bb
00000050: 1547 6d3c a54e 0bbd 2192 3abd 9474 9b3d
00000060: ca38 e03d fb50 823d 28ac 17bd ab99 163d
00000070: 9b6f 55ba b63e f73d 32c3 8dbb 4260 f23d

conv_block_3.Conv.weight f4 [48, 32, 3, 3]
-0.085956775 -0.072172605 -0.116620384 -0.054819055 -0.06957748 -0.02176112 -0.053978484 -0.028898641
-0.060443893 -0.044441942 -0.1431239 -0.09726971 -0.06412542 -0.08807049 -0.111945 -0.051595293
-0.032395612 -0.01256135 -0.07755417 -0.0096478425 -0.050903626 -0.12374468 -0.16217218 -0.1629211
-0.05866728 -0.061434094 -0.044871274 -0.26868477 -0.24014421 -0.22343117 -0.13536498 -0.22656186
-0.1987561 -0.14220823 -0.15716593 -0.11343443 -0.13122359 -0.15283665 -0.15469842 -0.1831247
-0.14626151 -0.088117786 -0.0777707 -0.08282989 -0.09903027 0.025871294 0.062697686 0.037856046
-0.0015955375 -0.00048543574 0.04329892 0.014174433 0.09787597 0.106606856 -0.099584185 -0.0872898
-0.097272396 -0.092095554 -0.096877545 -0.032829512 -0.09336976 0.008454536 -0.02604245 -0.28880903
-0.1502457 -0.19792779 -0.17584518 -0.1686263 -0.17787053 -0.12673534 -0.14149588 -0.16560493
-0.05545063 -0.04492293 -0.06873454 0.03564221 -0.08376554 -0.009757709 -0.036092408 -0.024806371
-0.05830385 -0.127606 -0.081674814 -0.046773173 -0.06529422 -0.071300216 -0.081231594 -0.057178322
-0.11894943 -0.014093986 -0.00012778107 -0.050543506 -0.02581163 -0.10998476 -0.17149703 -0.10473219
-0.052343223 -0.051036127 -0.10559991 -0.14876375 -0.090451814 -0.06709787 -0.073917195 -0.089037046
-0.08430096 -0.10509026 -0.070193015 -0.0785611 -0.05976724 -0.09479364 -0.15325166 -0.13192081
-0.06630686 -0.16071568 -0.07821013 -0.016082503 -0.07885969 -0.11970445 -0.10028799 0.018738054
-0.0074003097 0.028538823 0.017419923 0.025954025 0.021336759 0.029852876 -0.17297949 -0.17576689
-0.11089599 -0.15115553 -0.16802816 -0.06718101 -0.13082542 -0.19204004 -0.1572283 0.019052494
0.06196386 -0.029154485 0.014407785 0.019717643 0.01917416 -0.047693327 0.011329936 0.04943819
-0.057872307 -0.05586241 -0.075414374 -0.03518809 -0.054718845 -0.1210814 -0.085084856 -0.08821738
-0.11393684 0.067447454 0.11434437 0.13785776 0.12132121 0.09221225 0.13299707 0.15001632
0.12268087 0.11070032 -0.028571047 -0.012642173 -0.02355354 -0.00958804 -0.038554758 -0.04919636
-0.04531402 -0.00081768015 -0.03778477 -0.025450058 0.05961498 0.002082867 -0.0300924 -0.0027470936
0.009311287 0.059848752 0.0834092 0.08386521 0.036347102 0.063033305 0.10402832 0.038572524
0.033779845 -0.02151789 0.053834025 0.065134846 0.11918116 -0.13713793 -0.13134147 -0.08398188
-0.21271995 -0.21376847 -0.1571934 -0.21213128 -0.22111648 -0.1448955 -0.0735014 -0.037013974
-0.061342828 -0.13328564 -0.079858035 -0.009613735 -0.12713848 -0.110225275 -0.02698013 -0.012597486
-0.041834276 -0.038868066 -0.05358318 -0.037164617 -0.07387276 -0.108100645 -0.044541705 -0.020721607
-0.16208763 -0.17763978 -0.1290198 -0.14023392 -0.23478651 -0.22612448 -0.10193115 -0.15789504
-0.17234333 -0.085638925 -0.1297743 -0.030949082 -0.06867931 -0.09754604 -0.020678101 -0.091025814
-0.070445016 -0.14782256 -0.06928244 0.0051419353 0.022677861 -0.02976652 -0.05364405 -0.00046948338
-0.07745921 -0.0746048 -0.06315855 0.10839481 0.16357195 0.13937394 0.04361769 0.07036268
0.10371372 0.017610142 0.082154185 0.047337417 -0.062297177 -0.06709443 -0.06368981 -0.037681717
00000000: 1b0a b0bd 3bcf 93bd abd6 eebd f289 60bd
00000010: a37e 8ebd 6044 b2bc 8b18 5dbd d8bc ecbc
00000020: 0494 77bd c108 36bd 128f 12be 5735 c7bd
00000030: 3054 83bd 4d5e b4bd 6c43 e5bd 9655 53bd
00000040: 43b1 04bd 1fce 4dbc b8d4 9ebd fc11 1ebc
00000050: 5280 50bd da6d fdbd 7710 26be cad4 26be
00000060: 1a4d 70bd 51a2 7bbd f1ca 37bd 0d91 89be
00000070: 5de8 75be 24cb 64be 1e9d 0abe d5ff 67be
00000080: b886 4bbe 099f 11be 1bf0 20be 4f50 e8bd
00000090: 7a5f 06be 3681 1cbe 4369 1ebe 0b85 3bbe
000000a0: 94c5 15be 1977 b4bd 3f46 9fbd b8a2 a9bd
000000b0: 62d0 cabd 09f0 d33c a567 803d f10e 1b3d
000000c0: 5b21 d1ba 1582 feb9 355a 313d e23b 683c
000000d0: 3273 c83d b254 da3d cbf2 cbbd ffc4 b2bd
000000e0: c036 c7bd 989c bcbd bc67 c6bd 3d78 06bd
000000f0: a538 bfbd e584 0a3c fa56 d5bc c7de 93be
00000100: 02da 19be 95ad 4abe c210 34be 5fac 2cbe
00000110: b123 36be e9c6 01be 4ce4 10be 5794 29be
00000120: 3320 63bd 1b01 38bd b2c4 8cbd 91fd 113d
00000130: 448d abbd ccde 1fbc a2d5 13bd bb36 cbbc
00000140: 05d0 6ebd 26ab 02be 2045 a7bd 3a95 3fbd
00000150: fab8 85bd d905 92bd c05c a6bd d133 6abd
00000160: c29b f3bd 76ea 66bc f8fc 05b9 b506 4fbd
00000170: e972 d3bc b13f e1bd eb9c 2fbe d57d d6bd
00000180: d965 56bd 420b 51bd c444 d8bd 8655 18be
00000190: cd3e b9bd 9c6a 89bd e661 97bd 0e59 b6bd
000001a0: fba5 acbd 9039 d7bd 5bc1 8fbd a4e4 a0bd
000001b0: 7ece 74bd 2b23 c2bd 01ee 1cbe 4016 07be
000001c0: e4cb 87bd a792 24be a22c a0bd 74bf 83bc
000001d0: 3081 a1bd 9b27 f5bd ca63 cdbd 8c80 993c
000001e0: 4c7e f2bb 40ca e93c 3ab4 8e3c 899d d43c
000001f0: 6dca ae3c 058e f43c 8921 31be 3cfc 33be
00000200: 701d e3bd 84c8 1abe 930f 2cbe 3396 89bd
00000210: 19f7 05be 25a6 44be 7500 21be fa13 9c3c
00000220: d1cd 7d3d 63d5 eebc a10e 6c3c e586 a13c
00000230: 2113 9d3c 145a 43bd 32a1 393c b37f 4a3d
00000240: 830b 6dbd fccf 64bd da72 9abd 6321 10bd
00000250: de20 60bd 86f9 f7bd f840 aebd 50ab b4bd
00000260: b857 e9bd e421 8a3d 622d ea3d 962a 0d3e
00000270: 4177 f83d c7d9 bc3d 6230 083e e19d 193e
00000280: 1c40 fb3d d9b6 e23d d40d eabc 1e21 4fbc
00000290: 5bf3 c0bc 2817 1dbc 98eb 1dbd 1f82 49bd
000002a0: 329b 39bd 9659 56ba 34c4 1abd a47c d0bc
000002b0: d62e 743d b680 083b 5684 f6bc 9508 34bb
000002c0: 5e8e 183c f723 753d 71d2 aa3d 86c1 ab3d
000002d0: b3e0 143d 9b17 813d cd0c d53d 39fe 1d3d
000002e0: bc5c 0a3d 4946 b0bc 1181 5c3d 6b65 853d
000002f0: 4115 f43d e36d 0cbe 617e 06be b1fe abbd
00000300: 42d3 59be 1fe6 5abe 4ff7 20be f138 59be
00000310: 5c6c 62be 7c5f 14be e787 96bd f79b 17bd
00000320: 9e42 7bbd 087c 08be 9c8c a3bd ed82 1dbc
00000330: 9730 02be cabd e1bd 6f05 ddbc b065 4ebc
00000340: 6b5a 2bbd 1f34 1fbd 097a 5bbd ed39 18bd
00000350: 9a4a 97bd df63 ddbd 5d71 36bd 5cc0 a9bc
00000360: 4dfa 25be 34e7 35be c41d 04be 7b99 0fbe
00000370: e06b 70be 2d8d 67be 47c1 d0bd 3daf 21be
00000380: c57a 30be 7663 afbd 8ee3 04be ee88 fdbc
00000390: bda7 8cbd 38c6 c7bd 1f65 a9bc be6b babd
000003a0: 7a45 90bd cc5e 17be f4e3 8dbd ae7d a83b
000003b0: ecc6 b93c ebd8 f3bc ddb9 5bbd fe24 f6b9
000003c0: efa2 9ebd 67ca 98bd 4559 81bd 19fe dd3d
000003d0: 687f 273e 0bb8 0e3e 77a8 323d 4f1a 903d
000003e0: dc67 d43d 2543 903c 7440 a83d e1e4 413d
000003f0: 532b 7fbd ce68 89bd ce6f 82bd 2558 1abd

conv_block_3.Conv.bias f4 [48]
-0.0353147 -0.0021269612 0.06081363 -0.0003839381 -0.0456229 -0.070554614 -0.034887537 -0.043882143
-0.034475766 -0.070280984 -0.0062882635 -0.053930763 0.0031220827 -0.008173849 -0.042377196 -0.053469002
-0.039975032 -0.060573146 -0.04746337 -0.046009775 0.031801343 0.01580522 -0.005440799 0.034355476
-0.11168909 0.03245982 0.015647305 0.011473352 0.04192954 -0.052651864 -0.09572957 0.028904952
0.0213349 -0.035097342 -0.059487805 0.039720807 -0.06002897 -0.016679455 0.005774804 0.061628148
0.022710163 -0.032272764 -0.022487164 0.0019399301 -0.055389684 -0.045546975 -0.030331718 0.02323115
00000000: 26a6 10bd 7d64 0bbb b717 793d 4d4b c9b9
00000010: 14df 3abd f07e 90bd 3ce6 0ebd c3bd 33bd
00000020: 7636 0dbd 7aef 8fbd c70d cebb 81e6 5cbd
00000030: db9b 4c3b 9ceb 05bc b693 2dbd 5002 5bbd
00000040: dcbc 23bd 8c1b 78bd f368 42bd bf74 3cbd
00000050: 2042 023d f379 813c bb48 b2bb 54b8 0c3d
00000060: 40bd e4bd 97f4 043d c72e 803c bafa 3b3c
00000070: 4fbe 2b3d 7ba9 57bd dd0d c4bd 14ca ec3c
00000080: 87c6 ae3c 3bc2 0fbd 7ca9 73bd 49b2 223d
00000090: f0e0 75bd 5aa3 88bc 913a bd3b cc6d 7c3d
000000a0: aa0a ba3c 7230 04bd 0037 b8bc 4145 fe3a
000000b0: 4be0 62bd 778f 3abd 397a f8bc 414f be3c

res_block_1.0.Conv.weight f4 [48, 48, 3, 3]
0.026403036 0.022403546 0.04890519 0.0048281597 -0.017142294 -0.0053609684 0.09288794 0.0047261915
0.051410504 -0.009506413 -0.0729386 -0.1405214 0.021847028 0.02842344 -0.14120616 0.053373642
0.024289 -0.048498683 0.013507828 0.06288521 -0.03549501 0.09677254 0.019857043 0.0006347733
0.010038388 0.016034571 0.049387027 -0.073569834 -0.07765452 -0.15314296 0.004829876 -0.05290958
-0.052940477 0.11088072 0.061302394 -0.0816053 -0.0029661143 -0.0043671 -0.19457126 0.10165951
0.028358636 -0.09910549 0.17834161 0.1158152 -0.08011172 0.015622815 -0.052515272 -0.21603833
0.041216087 0.059072535 -0.091425575 0.1556019 0.062351856 -0.04142125 0.025253365 0.015116517
-0.019890396 0.021201856 0.03545898 -0.06492961 0.014844047 -0.0132714445 -0.021692006 -0.0057211565
-0.014869107 -0.012374101 0.12082551 0.006878617 0.02520001 0.055562023 -0.011169784 -0.0062355334
0.022422897 -0.0726443 -0.28227273 0.10113793 -0.014781428 -0.101246886 0.1378468 0.042432092
-0.0011194391 -0.0152590955 -0.011030501 -0.033075113 -0.05671844 -0.07847565 -0.053583805 -0.051356077
-0.056097433 -0.071288034 0.0014159067 0.01107908 -0.047756292 0.08310408 0.060131382 0.030300353
0.012454656 0.03533724 0.09435916 -0.024424294 -0.047375865 -0.09825259 0.10314427 0.06171743
-0.10296949 0.17288688 0.06382916 -0.02384186 0.016801845 0.058143973 0.045756273 -0.016568024
0.0032780492 0.036762644 -0.041834082 0.02685078 -0.001476094 -0.028817644 -0.04600723 -0.050955694
0.027273668 0.0086315535 0.018950813 -0.0255393 -0.027077539 -0.04385677 0.017252479 -0.0713018
-0.1292611 0.050151996 0.010599983 -0.10017989 0.11877607 0.04863826 -0.03361813 -0.03689661
-0.060593467 -0.119414434 0.04003116 0.012878905 -0.045989018 0.074864 -0.012290606 -0.10147125
0.052901037 -0.028407041 -0.16661209 0.11129301 0.061158262 -0.053295765 0.174921 0.09503186
-0.057320524 -0.023519134 -0.018308686 -0.035410475 0.027049143 0.09359856 0.05572729 -0.0007013017
0.047689214 0.004631094 0.06043822 -0.0018019279 -0.13843152 0.071862236 0.010974082 -0.029350348
0.22843362 0.14292061 -0.057743903 0.019240284 0.00880754 -0.17666505 0.16277488 0.07993007
-0.10466033 0.21665992 0.11831367 -0.06471487 0.008951005 -0.01876526 -0.059477463 0.033945058
0.033306167 -0.08963595 0.16701569 0.040528316 -0.036717813 -0.039489053 -0.007859068 0.084992446
0.029649036 0.017988482 0.058654055 0.004028468 -0.0045378623 0.013810563 0.01541137 -0.022702504
-0.11064846 -0.014137834 0.006622356 -0.034853693 0.14577493 0.011222705 -0.045510076 0.037029095
-0.01985393 -0.10160513 -0.027891085 0.043414205 -0.06428652 0.0027676702 -0.0018416962 -0.034398045
0.042095095 0.031345904 -0.15381847 0.08931335 0.0465525 -0.016135965 0.17526512 0.108676836
-0.038068686 0.026165938 -0.024289982 -0.054966614 -0.052581172 0.005516632 -0.096545495 -0.042684715
-0.044524457 -0.09590032 0.01222384 0.08009644 0.047859967 0.047570158 0.0127313575 0.06962783
0.07919925 0.052401215 0.04771755 -0.02597415 -0.04652124 -0.09209684 0.07424492 0.05270354
0.004405837 0.07572622 0.048588686 -0.04564514 -0.044997305 0.012481103 0.0008170148 0.0023013314
00000000: 2e4b d83c a487 b73c cf50 483d 8a35 9e3b
00000010: ff6d 8cbc 10ab afbb 083c be3d 2bde 9a3b
00000020: d293 523d c9c0 1bbc d560 95bd d8e4 0fbe
00000030: 8af8 b23c 46d8 e83c 5998 10be 529e 5a3d
00000040: baf9 c63c 8ea6 46bd f04f 5d3c f6c9 803d
00000050: 3763 11bd ae30 c63d 3dab a23c ea66 263a
00000060: 0d78 243c ef5a 833c 0d4a 4a3d c8ab 96bd
00000070: 5509 9fbd 82d1 1cbe f043 9e3b b7b7 58bd
00000080: 1dd8 58bd 6e15 e33d 3818 7b3d ae20 a7bd
00000090: 2463 42bb e419 8fbb b03d 47be dc32 d03d
000000a0: 5f50 e83c d2f7 cabd 2f9f 363e 8530 ed3d
000000b0: 9d11 a4bd d6f6 7f3c 411a 57bd 2739 5dbe
000000c0: 33d2 283d 0bf6 713d 553d bbbd 1b56 1f3e
000000d0: a964 7f3d 54a9 29bd 25e0 ce3c 45ab 773c
000000e0: 2ff1 a2bc 84af ad3c 6f3d 113d d1f9 84bd
000000f0: 7234 733c 7970 59bc 6fb3 b1bc 8a78 bbbb
00000100: 8e9d 73bc bebc 4abc 5d73 f73d 0666 e13b
00000110: 4070 ce3c 0195 633d 7801 37bc 7253 ccbb
00000120: 39b0 b73c 89c6 94bd 0d86 90be 6721 cf3d
00000130: cd2d 72bc 875a cfbd b627 0d3e 46cd 2d3d
00000140: 25ba 92ba 4901 7abc 46b9 34bc c579 07bd
00000150: 9851 68bd d7b7 a0bd b17a 5bbd c05a 52bd
00000160: 6cc6 65bd 76ff 91bd f295 b93a 0885 353c
00000170: 1a9c 43bd 7932 aa3d 534c 763d 7238 f83c
00000180: 9d0e 4c3c c8bd 103d 603f c13d 7515 c8bc
00000190: 320d 42bd a738 c9bd 4e3d d33d 6acb 7c3d
000001a0: abe1 d2bd 4209 313e ddb8 823d 0150 c3bc
000001b0: 06a4 893c 6028 6e3d ee6a 3b3d aab9 87bc
000001c0: 8ad4 563b 6d94 163d 375a 2bbd 2bf6 db3c
000001d0: 7f79 c1ba fb12 ecbc 1472 3cbd ebb6 50bd
000001e0: 076d df3c 5c6b 0d3c bc3e 9b3c cb37 d1bc
000001f0: b7d1 ddbc 28a3 33bd 1255 8d3c ae06 92bd
00000200: 065d 04be 2e6c 4d3d 8dab 2d3c 1d2b cdbd
00000210: de40 f33d ea38 473d 2ab3 09bd e620 17bd
00000220: db30 78bd 8e8f f4bd b7f7 233d 0b02 533c
00000230: fb5e 3cbd 4c52 993d 8a5e 49bc 29d0 cfbd
00000240: c2ae 583d e2b5 e8bc 5c9c 2abe 97ed e33d
00000250: 1681 7a3d a94c 5abd 7e1e 333e 10a0 c23d
00000260: edc8 6abd 33ab c0bc 19fc 95bc 930a 11bd
00000270: 2a96 dd3c 9ab0 bf3d 4d42 643d 8fd7 37ba
00000280: c455 433d 6fc0 973b 118e 773d ab2e ecba
00000290: fec0 0dbe 822c 933d a3cc 333c 2470 f0bc
000002a0: 81ea 693e c859 123e df84 6cbd cd9d 9d3c
000002b0: 804d 103c afe7 34be 75ae 263e 60b2 a33d
000002c0: 2858 d6bd 19dc 5d3e 704e f23d 3b89 84bd
000002d0: 3ca7 123c 9ab9 99bc a49e 73bd f909 0b3d
000002e0: 0c6c 083d 0e93 b7bd 2906 2b3e 0501 263d
000002f0: 6b65 16bd 46bf 21bd 52c3 00bc 8510 ae3d
00000300: 89e2 f23c 955c 933c 3c3f 703d 3d01 843b
00000310: 59b2 94bb b345 623c f97f 7c3c 9afa b9bc
00000320: a99b e2bd 60a2 67bc 5900 d93b bfc2 0ebd
00000330: 0646 153e 70df 373c c668 3abd d2ab 173d
00000340: b6a4 a2bc 5a16 d0bd d87b e4bc 18d3 313d
00000350: a7a8 83bd cd61 353b 1265 f1ba f7e4 0cbd
00000360: e86b 2c3d 9064 003d 9782 1dbe ebe9 b63d
00000370: d6ad 3e3d 922f 84bc b378 333e f691 de3d
00000380: e9ed 1bbd f359 d63c c9fb c6bc ac24 61bd
00000390: 5b5f 57bd ddc4 b43b a5b9 c5bd 2bd6 2ebd
000003a0: 475f 36bd 6367 c4bd 8046 483c 9a09 a43d
000003b0: d008 443d edd8 423d 2f97 503c 0999 8e3d
000003c0: 3733 a23d a8a2 563d 7a73 433d bec7 d4bc
000003d0: 0e8d 3ebd 459d bcbd b80d 983d abdf 573d
000003e0: d75e 903b 5916 9b3d ee04 473d 66f6 3abd
000003f0: 184f 38bd 8a7d 4c3c ef2c 563a efd1 163b

res_block_1.0.Conv.bias f4 [48]
-0.07362561 0.024532368 0.016441926 -0.0027411538 0.046933465 0.035553537 -0.0024987154 0.04083792
0.046984777 -0.0714627 0.022008575 -0.06507646 -0.04411836 -0.042559072 -0.02005216 0.015326873
-0.07373934 -0.046294987 -0.052800838 -0.035442904 0.007854432 -0.029983915 -0.08333496 0.008197176
-0.03889213 -0.01162478 0.024701146 -0.017871816 -0.008754711 0.008461337 0.0072489604 0.001198729
-0.023768632 0.042615283 -0.031716764 0.008287837 -0.028549807 0.041062526 0.017437307 -0.05386909
-0.10623321 -0.011192801 0.049252693 -0.0055121216 -0.039352216 -0.035534825 -0.036285225 -0.05589029
00000000: 06c9 96bd 1bf8 c83c 38b1 863c eea4 33bb
00000010: 4e3d 403d 96a0 113d 7dc1 23bb aa45 273d
00000020: 1c73 403d 095b 92bd 544b b43c cf46 85bd
00000030: 74b5 34bd 6c52 2ebd 6d44 a4bc 911d 7b3c
00000040: a704 97bd d09f 3dbd b145 58bd 942c 11bd
00000050: e0af 003c d4a0 f5bc 85ab aabd 734d 063c
00000060: 5b4d 1fbd dc75 3ebc 0f5a ca3c ea67 92bc
00000070: eb6f 0fbc 6ba1 0a3c b088 ed3b ac1e 9d3a
00000080: 6fb6 c2bc 5d8d 2e3d 70e9 01bd b5c9 073c
00000090: 49e1 e9bc 2e31 283d afd8 8e3c d6a5 5cbd
000000a0: cc90 d9bd 0362 37bc 31bd 493d 079f b4bb
000000b0: ca2f 21bd f78c 11bd d19f 14bd 37ed 64bd

res_block_1.1.Conv.weight f4 [48, 48, 3, 3]
-0.0148926275 0.040763527 0.0689204 -0.046369065 0.03233327 0.054699652 -0.040738977 -0.018212773
0.020499064 -0.07209898 -0.0016516226 0.0686671 -0.059694137 -0.013506579 0.0022673276 -0.06384332
0.0011027297 -0.04953422 -0.026006756 0.0061032847 -0.06954543 -0.029969579 0.005756199 0.018253818
0.040061202 -0.008834988 -0.016092418 0.038285572 0.08388234 -0.0012633293 -0.018739946 0.024978198
0.041996874 -0.051789083 -0.04390473 -0.031257313 0.041226957 0.015705463 0.037534554 0.048858028
0.039862517 -0.016582808 0.015644738 0.0025285115 0.044947986 -0.077143624 -0.07664908 0.008672669
-0.006558231 -0.020453079 0.04695793 -0.022776732 0.015395258 -0.0015175937 0.06396837 0.09346517
0.06943021 0.077166416 0.0896823 0.08009135 0.07518825 0.09083391 0.04949875 0.07662125
0.059133243 0.047220193 0.05404081 0.029238941 0.090685844 0.084501915 0.042588145 0.09031355
0.010159995 0.11333877 0.11043243 0.050456595 0.06517694 0.020256782 -0.012462325 -0.013477635
0.013962287 -0.081731744 -0.042056564 -0.05732753 -0.036076978 0.05075641 0.0054978468 -0.15830182
-0.069840424 -0.04323257 -0.0981658 -0.02643772 -0.040448505 -0.047868382 0.044571422 0.05920484
-0.018108817 -0.03715072 -0.020563377 -0.06895808 -0.074688375 -0.03833462 -0.07957577 -0.027964167
-0.12117727 -0.09722584 -0.11943061 -0.11181295 -0.041826952 -0.017509444 -0.031394627 -0.015224491
-0.0034590152 -0.024217518 0.028572079 0.011159093 0.019926568 -0.024345165 -0.0026382753 -0.028226621
0.021211073 0.0135993 0.006828062 0.031677935 -0.015297632 -0.03499564 0.053141963 0.023885075
0.04305793 0.008502582 0.063575365 0.08116903 -0.0028360032 0.082437225 0.07215775 -0.06738372
0.02112025 -0.08322582 0.013128635 0.041227773 -0.027321637 -0.036240585 -0.03596543 -0.10320257
-0.09920608 -0.025954627 -0.04457879 -0.10289559 -0.022367308 -0.053775482 -0.13322732 -0.13220663
-0.11867335 -0.08769141 -0.058510806 -0.04010456 -0.037649743 -0.08488359 -0.10676739 -0.118154906
-0.06549522 -0.12106193 -0.05822304 -0.06631194 -0.12913945 -0.120163515 -0.04604065 -0.04056746
-0.17324293 -0.09936928 -0.11359142 0.043559246 0.033380184 0.059229314 0.019659309 0.011914901
0.053617764 -0.07091916 -0.013205313 -0.039945982 -0.09986146 -0.10189118 -0.083429456 -0.06145104
-0.09034527 -0.13294707 -0.10081808 -0.08077751 -0.119012 0.22818431 0.21389642 0.08797157
0.16204926 0.1221674 0.045481287 0.078135796 0.0631546 -0.023179533 -0.046604544 -0.08745167
-0.07836854 -0.09974525 -0.05754736 -0.083001666 -0.11468621 -0.12725762 -0.12236024 0.12847501
0.09756961 0.07334069 0.02594767 0.013308711 0.06998444 -0.030235082 -0.038819104 0.0028850476
-0.11626666 -0.037654545 -0.045200575 -0.03368678 0.006629701 -0.011561614 -0.0749419 -0.06253874
-0.11185635 0.062261038 0.024997516 -0.062722996 0.11642236 0.00839683 -0.045974288 0.1316843
0.020805245 0.026522128 0.066886805 0.084916316 0.002166422 0.026777737 0.026771441 0.05089299
-0.045401677 0.017620048 -0.063660786 -0.04813414 0.00027171717 0.03132545 -0.009749193 0.034120947
0.055837058 0.009463739 -0.04643507 0.06846397 -0.10154465 -0.040501427 -0.11967265 -0.077026546
00000000: 3500 74bc a8f7 263d 2426 8d3d 7ded 3dbd
00000010: e46f 043d be0c 603d eadd 26bd f432 95bc
00000020: a7ed a73c a1a8 93bd 427b d8ba 56a1 8c3d
00000030: d781 74bd b34a 5dbc 7297 143b 49c0 82bd
00000040: 7889 903a 65e4 4abd 1f0c d5bc 10fe c73b
00000050: d66d 8ebd c382 f5bc 7f9e bc3b 0889 953c
00000060: 3717 243d a0c0 10bc 3fd4 83bc 55d1 1c3d
00000070: 81ca ab3d 4c96 a5ba 8484 99bc 149f cc3c
00000080: ea04 2c3d ca20 54bd 72d5 33bd ab07 00bd
00000090: 99dd 283d bea8 803c d5bd 193d 5b1f 483d
000000a0: e146 233d abd8 87bc 6529 803c 62b5 253b
000000b0: 611b 383d 7afd 9dbd 31fa 9cbd cf17 0e3c
000000c0: 6ee6 d6bb 378d a7bc f556 403d 4596 babc
000000d0: 643c 7c3c ffe9 c6ba d901 833d ab6a bf3d
000000e0: 6d31 8e3d 6d09 9e3d 5bab b73d ef06 a43d
000000f0: 4cfc 993d 2107 ba3d 34bf 4a3d 9aeb 9c3d
00000100: b335 723d f669 413d e559 5d3d 8186 ef3c
00000110: 80b9 b93d 570f ad3d e870 2e3d 4ff6 b83d
00000120: 1c76 263c 281e e83d 662a e23d 93ab 4e3d
00000130: 7d7b 853d 8df1 a53c c82e 4cbc 4cd1 5cbc
00000140: 14c2 643c f962 a7bd 8143 2cbd 46d0 6abd
00000150: 74c5 13bd f4e5 4f3d 4827 b43b df19 22be
00000160: 7f08 8fbd a314 31bd 270b c9bd eb93 d8bc
00000170: 55ad 25bd a311 44bd 8690 363d c680 723d
00000180: f158 94bc 5a2b 18bd 8774 a8bc e539 8dbd
00000190: 38f6 98bd c304 1dbd 9ff8 a2bd 1c15 e5bc
000001a0: ca2b f8bd 571e c7bd 0998 f4bd 30fe e4bd
000001b0: bd52 2bbd f76f 8fbc a797 00bd 2570 79bc
000001c0: a5b0 62bb d163 c6bc fe0f ea3c a1d4 363c
000001d0: 0b3d a33c 836f c7bc eae6 2cbb 843b e7bc
000001e0: d8c2 ad3c 99cf 5e3c efbd df3b b9c0 013d
000001f0: eba2 7abc 9757 0fbd 63ab 593d a2aa c33c
00000200: 835d 303d 6a4e 0b3c cd33 823d f33b a63d
00000210: 3ddc 39bb d9d4 a83d 71c7 933d 7a00 8abd
00000220: 6004 ad3c 4c72 aabd 7c19 573c 74de 283d
00000230: a0d1 dfbc 0271 14bd 7d50 13bd de5b d3bd
00000240: 8f2c cbbd cc9e d4bc 4098 36bd ecba d2bd
00000250: a53b b7bc ae43 5cbd be6c 08be 2d61 07be
00000260: 030b f3bd 8e97 b3bd 07a9 6fbd ae44 24bd
00000270: 9e36 1abd 73d7 adbd dda8 dabd 33fb f1bd
00000280: 5c22 86bd 51ef f7bd 487b 6ebd 8ece 87bd
00000290: 223d 04be 4a18 f6bd 1f95 3cbd 112a 26bd
000002a0: 9866 31be 1f82 cbbd 9ea2 e8bd 2e6b 323d
000002b0: a9b9 083d 709a 723d 8f0c a13c b836 433c
000002c0: 4d9e 5b3d 113e 91bd 195b 58bc 669e 23bd
000002d0: 2a84 ccbd 53ac d0bd 10dd aabd 16b4 7bbd
000002e0: f106 b9bd 4723 08be b679 cebd ae6e a5bd
000002f0: 90bc f3bd 26a9 693e aa07 5b3e 702a b43d
00000300: 3ef0 253e e732 fa3d 964a 3a3d a905 a03d
00000310: 3357 813d 01e3 bdbc 68e4 3ebd dc19 b3bd
00000320: af7f a0bd 3d47 ccbd c8b6 6bbd c7fc a9bd
00000330: 9be0 eabd d24f 02be 0198 fabd f48e 033e
00000340: 93d2 c73d a533 963d 3590 d43c c80c 5a3c
00000350: 0154 8f3d 90af f7bc c800 1fbd 1113 3d3b
00000360: 371d eebd a73b 1abd 3d24 39bd 26fb 09bd
00000370: f63d d93b ed6c 3dbc 247b 99bd 5014 80bd
00000380: f114 e5bd 6e05 7f3d 97c7 cc3c ea74 80bd
00000390: d96e ee3d dc92 093c 894f 3cbd 40d8 063e
000003a0: c36f aa3c ef44 d93c f3fb 883d 9be8 ad3d
000003b0: 88fa 0d3b fc5c db3c c84f db3c 2b75 503d
000003c0: 1cf7 39bd eb57 903c 9660 82bd 4e28 45bd
000003d0: 4375 8e39 1d4f 003d 14bb 1fbc 68c2 0b3d
000003e0: 66b5 643d cc0d 1b3c b332 3ebd d736 8c3d
000003f0: a4f6 cfbd d3e4 25bd ef16 f5bd 18c0 9dbd

res_block_1.1.Conv.bias f4 [48]
0.0042396323 0.001705598 0.016943436 0.052407574 0.009772549 0.016852204 0.003213855 -0.0066506676
-0.005364874 0.01944968 -0.011166683 -0.00038699264 -0.048345193 0.033862535 0.031802557 0.004989213
0.039122447 0.006595541 0.01352012 0.017748887 -0.014504814 0.030663589 -0.0008754626 4.4234806e-05
-0.0030211606 -0.03967273 0.038119093 0.012202985 -0.048087735 0.038248405 0.04239247 -0.018819535
-0.06411273 -0.012338208 0.0001600076 0.041003324 0.025097556 0.021231417 0.04789307 0.034217697
0.006824754 -0.06418475 -0.039102133 -0.040195987 -0.00150815 -0.023726203 0.0148807885 -0.016678175
00000000: 9dec 8a3b 5f8e df3a f6cc 8a3c 53a9 563d
00000010: 0b1d 203c a20d 8a3c 8a9f 523b d8ed d9bb
00000020: d3cb afbb ef54 9f3c 77f4 36bc 46e5 cab9
00000030: 9c05 46bd 71b3 0a3d 6643 023d 8d7c a33b
00000040: dc3e 203d 681f d83b 7e83 5d3c 1d66 913c
00000050: 99a5 6dbc 3532 fb3c 4d7f 65ba c388 3938
00000060: aafe 45bb df7f 22bd c422 1c3d 07ef 473c
00000070: a5f7 44bd 5caa 1c3d baa3 2d3d 6d2b 9abc
00000080: 894d 83bd 3226 4abc b7c7 2739 1af3 273d
00000090: 6499 cd3c 82ed ad3c 862b 443d db27 0c3d
000000a0: 30a2 df3b 4b73 83bd 8f29 20bd 8ca4 24bd
000000b0: 1ead c5ba 745d c2bc 8dce 733c aba0 88bc

res_block_2.0.Conv.weight f4 [48, 48, 3, 3]
-0.017413933 0.090620354 0.07892656 0.06936269 0.0044375043 0.046573445 0.0736815 0.0631167
0.058475893 -0.06123235 -0.046446588 0.0028573098 0.07870183 -0.068903856 0.060963806 0.0993021
0.040887084 0.06644336 0.017896073 0.075032055 0.039811034 0.011332221 0.0032476068 0.0070844563
0.040183008 0.07188084 0.053542953 0.10830967 0.040594585 0.051344775 0.112957284 0.07554175
0.028959017 0.06820342 0.057204314 0.08096917 0.066568434 0.01707764 -0.025659282 -0.014548367
-0.07862185 -0.049591776 -0.060597125 -0.12792857 -0.14124891 -0.0069366572 -0.025011575 0.018348927
-0.018319998 -0.0854842 -0.03745436 -0.06719107 -0.031612147 -0.07907481 0.066827886 0.047943637
0.02010689 -0.095612094 -0.01655102 -0.070936635 -0.11916306 -0.11797457 -0.1056996 0.004875854
-0.05012703 -0.0034045523 0.039696436 0.040371794 0.034220543 0.12356634 0.08104788 0.0038314888
-0.052295033 -0.05131215 0.009390326 0.071447246 0.1260037 0.12148786 0.11467139 0.11147899
0.13777967 -0.027534714 -0.08827936 -0.031854287 -0.060398716 0.0052365577 0.05685896 0.05130433
0.0673609 0.10432045 -0.043927558 -0.033194568 -0.05024648 0.0146696195 0.057182744 0.07349821
0.033662446 0.13091215 0.060527254 0.022394283 0.013177337 0.058151472 -0.15270844 -0.3251554
-0.26832724 -0.2512583 -0.3462981 -0.39744732 0.009530766 0.038990468 -0.026612056 -0.12776937
-0.098948635 -0.15230867 -0.13148786 -0.15543368 -0.20432617 -0.010204964 -0.028452868 -0.017090326
-0.041880168 -0.019405229 0.015328669 -0.060460556 0.00784657 -0.012411154 -0.028546773 0.0019150093
-0.024478186 -0.10920828 0.018482158 -0.013319431 -0.051276326 -0.001102589 -0.060798533 0.07039604
-0.007877364 0.044367637 0.016727993 -0.006452289 0.011788446 -0.06294424 -0.0165917 0.10654309
-0.07261235 -0.03817659 0.024121339 0.024145488 0.00014598062 -0.013313348 0.018612003 -0.024371194
0.0062088035 -0.03581231 -0.003463192 -0.031972595 -0.12719543 -0.16303921 -0.116124794 -0.1271083
-0.20701674 -0.14081685 -0.042623166 -0.034895796 0.044982832 0.038904265 0.059222933 0.13869157
-0.023102827 0.13415372 0.103331245 0.041182328 0.041955043 0.057183485 -0.026738718 0.042292677
0.022421386 -0.045492437 -0.0036349862 0.025160488 -0.096707225 -0.00045917183 0.024306761 0.09287266
0.22722544 0.15437664 0.15263483 0.2549823 0.2790763 0.116776384 0.093591765 0.05794562
0.032931034 -0.0027167057 -0.04366543 -0.029615004 0.03966341 0.0068538855 -0.0132549945 0.008742504
0.06225193 0.09539729 0.16679539 0.0964589 0.09146505 0.1016199 0.0846056 0.030874537
-0.035804607 -0.0075488626 0.041574664 0.10062062 0.03666898 0.07146617 0.19055273 0.08200664
-0.03193453 -0.024715975 0.033526238 0.019024024 0.01368434 0.12567995 0.047647376 0.054675616
0.06292824 -0.06432031 -0.023365151 -0.029680736 0.12938043 0.13487978 0.06383173 0.13078907
0.09170699 0.07484979 0.07921932 0.031063978 0.023874061 0.04378258 -0.04270915 0.03515547
-0.0073656016 -0.1002382 -0.03476961 -0.10088657 -0.021387588 -0.08064456 0.028672481 -0.037578296
-0.05742341 -0.031605538 0.013717399 -0.005804098 -0.007200152 0.032255765 0.015079873 -0.020028688
00000000: aaa7 8ebc 2a97 b93d 40a4 a13d 070e 8e3d
00000010: 7c68 913b ccc3 3e3d 54e6 963d 5443 813d
00000020: 6b84 6f3d c6ce 7abd c73e 3ebd b441 3b3b
00000030: 6d2e a13d 771d 8dbd 2fb5 793d e65e cb3d
00000040: 3779 273d 7513 883d c99a 923c 68aa 993d
00000050: e510 233d c8aa 393c cdd5 543b ba24 e83b
00000060: f096 243d 4336 933d db4f 5b3d 76d1 dd3d
00000070: 8246 263d e64e 523d 2656 e73d a2b5 9a3d
00000080: 763b ed3c 3cae 8b3d 124f 6a3d 2ad3 a53d
00000090: 0855 883d 68e6 8b3c 6a33 d2bc 465c 6ebc
000000a0: 7e04 a1bd bf20 4bbd b134 78bd b5ff 02be
000000b0: 8ea3 10be e64c e3bb 13e5 ccbc 7d50 963c
000000c0: d213 96bc 5712 afbd be69 19bd 799b 89bd
000000d0: bd7b 01bd f9f1 a1bd 0fdd 883d 8c60 443d
000000e0: 34b7 a43c 46d0 c3bd 0196 87bc 3a47 91bd
000000f0: c30b f4bd a79c f1bd 0879 d8bd a1c5 9f3b
00000100: 0052 4dbd e91e 5fbb bb98 223d e55c 253d
00000110: d72a 0c3d 5910 fd3d 6efc a53d b719 7b3b
00000120: 5133 56bd b02c 52bd e2d9 193c ef52 923d
00000130: 1d07 013e a1ce f83d d5d8 ea3d 194f e43d
00000140: 1d16 0d3e 7b90 e1bc cfcb b4bd a479 02bd
00000150: a564 77bd 6e97 ab3b f1e4 683d 7d24 523d
00000160: 83f4 893d f6a5 d53d 62ed 33bd 07f7 07bd
00000170: 41cf 4dbd d858 703c 7438 6a3d 3b86 963d
00000180: a2e1 093d d60d 063e 6deb 773d 3774 b73c
00000190: c2e5 573c 3d30 6e3d 9a5f 1cbe c57a a6be
000001a0: 3062 89be eea4 80be fc4d b1be 377e cbbe
000001b0: ee26 1c3c 78b4 1f3d 8701 dabc f9d5 02be
000001c0: 95a5 cabd cef6 1bbe c1a4 06be 022a 1fbe
000001d0: e13a 51be b932 27bc fd15 e9bc 0301 8cbc
000001e0: 8a8a 2bbd b7f7 9ebc 1925 7b3c 7da5 77bd
000001f0: e68e 003c 2758 4bbc ecda e9bc 0d01 fb3a
00000200: 7a86 c8bc 97a8 dfbd e567 973c be39 5abc
00000210: 2007 52bd bf84 90ba e207 79bd cd2b 903d
00000220: 0f10 01bc d7ba 353d 2509 893c b96d d3bb
00000230: 5424 413c e9e8 80bd 51eb 87bc 4333 da3d
00000240: c9b5 94bd 0e5f 1cbd 1d9a c53c c2cc c53c
00000250: 6012 1939 3b20 5abc 3378 983c 19a6 c7bc
00000260: 3873 cb3b eeaf 12bd b8f6 62bb b2f5 02bd
00000270: 853f 02be c0f3 26be d6d2 edbd ae28 02be
00000280: 32fc 53be 4b32 10be a195 2ebd e5ee 0ebd
00000290: eb3f 383d 145a 1f3d bf93 723d 2a05 0e3e
000002a0: 2442 bdbc 985f 093e 559f d33d cdae 283d
000002b0: 0dd9 2b3d 3b39 6a3d 280b dbbc 163b 2d3d
000002c0: 0ead b73c 4756 3abd f338 6ebb 5e1d ce3c
000002d0: 700e c6bd 00bd f0b9 f91e c73c 0534 be3d
000002e0: c9ad 683e e914 1e3e 4e4c 1c3e 0a8d 823e
000002f0: 17e3 8e3e 7528 ef3d 0aad bf3d 6358 6d3d
00000300: b1e2 063d c20a 32bb 86da 32bd 2a9b f2bc
00000310: 1a76 223d 8f96 e03b 7a2b 59bc b83c 0f3c
00000320: e1fb 7e3d a85f c33d 69cc 2a3e 3e8c c53d
00000330: 0752 bb3d 181e d03d b345 ad3d 99ec fc3c
00000340: daa7 12bd 735c f7bb 324a 2a3d 2f12 ce3d
00000350: 3632 163d db5c 923d 4120 433e 19f3 a73d
00000360: c8cd 02bd 2879 cabc cf52 093d 45d8 9b3c
00000370: 4834 603c 3fb2 003e e529 433d 8af3 5f3d
00000380: 85e0 803d 5eba 83bd 4668 bfbc 0425 f3bc
00000390: 4e7c 043e ed1d 0a3e 36ba 823d 92ed 053e
000003a0: e0d0 bb3d d94a 993d bd3d a23d e279 fe3c
000003b0: 8993 c33c 5d55 333d caef 2ebd 2fff 0f3d
000003c0: 255b f1bb af49 cdbd 946a 0ebd 9e9d cebd
000003d0: 0635 afbc fa28 a5bd 8de2 ea3c b3eb 19bd
000003e0: cf34 6bbd cf74 01bd f1be 603c 4e30 bebb
000003f0: 41ef ebbb 9f1e 043d 9211 773c 3413 a4bc

res_block_2.0.Conv.bias f4 [48]
0.023212552 -0.074722335 -0.038573354 0.04516109 0.017355332 0.06466784 0.019643899 0.014419488
-0.053452227 0.019889416 0.027488919 -0.055536035 -0.042045232 0.10299663 0.013744985 -0.11589173
-0.10914556 -0.03836495 0.053751945 -0.032214075 0.025876371 -0.016244978 0.024362445 0.016195487
-0.035356868 0.035104696 0.034421753 0.016188415 0.006963938 0.007810863 -0.022294786 -0.025967544
0.0053749 -0.033444352 -0.025175104 -0.03569533 -0.04446617 -0.0046448805 -0.008204053 -0.0795307
0.0044546532 -0.034441542 0.0128675215 0.02867999 -0.043412756 -0.031175941 -0.053379327 0.06131051
00000000: 4028 be3c 0608 99bd 18ff 1dbd d6fa 383d
00000010: c52c 8e3c 9370 843d 3eec a03c b73f 6c3c
00000020: b9f0 5abd 21ef a23c 7130 e13c c179 63bd
00000030: 9f37 2cbd e6ef d23d a532 613c a558 edbd
00000040: b587 dfbd 9124 1dbd 002b 5c3d e8f2 03bd
00000050: affa d33c 3014 85bc c093 c73c 66ac 843c
00000060: 5dd2 10bd f1c9 0f3d d3fd 0c3d 919d 843c
00000070: bf31 e43b 45f2 ff3b 8ea3 b6bc e3b9 d4bc
00000080: ee1f b03b f2fc 08bd 053c cebc 4435 12bd
00000090: 2922 36bd 1534 98bb 4b6a 06bc fee0 a2bd
000000a0: 57f8 913b 9312 0dbd 4cd2 523c 4cf2 ea3c
000000b0: 93d1 31bd b064 ffbc 48a4 5abd bb20 7b3d

res_block_2.1.Conv.weight f4 [48, 48, 3, 3]
0.09241097 0.09617766 0.07300254 0.06723895 0.0047386955 0.028469888 0.06897754 -0.007328842
-0.009553931 -0.0725851 -0.04919629 -0.04825588 -0.09491429 -0.016927522 -0.061597273 -0.1306421
-0.058495667 -0.035980318 -0.07602609 -0.034637116 -0.055287104 -0.068962835 -0.008395219 -0.030160611
-0.06942223 -0.033142366 -0.015481901 0.08623294 0.09419649 0.06154392 0.024195634 0.040973175
-0.025698202 0.044717703 -0.0012068029 0.023655722 0.01841511 0.013700392 0.037548088 0.08213495
0.065653905 -0.030334694 0.028666837 0.019361729 -0.039063737 0.14219365 0.1479444 0.098166466
0.06478122 0.041643925 0.011124917 0.054066367 0.026081769 0.014279763 0.1380289 0.061038967
0.07565661 0.11563186 0.059818227 0.07876943 0.09895794 0.07969295 0.010003953 0.09706266
0.074008405 0.09708169 0.027215246 0.10746504 0.053198524 0.01641735 0.058882512 -0.042286813
-0.072078325 -0.007859244 -0.010429546 -0.036914594 -0.03131861 0.0013078263 -0.13110681 -0.02760524
-0.063152246 0.09949571 0.007667281 0.01045892 0.12478965 0.1341684 0.068263315 0.029793708
0.015259995 -0.005096645 -0.0018559913 0.031371288 -0.014573269 0.10474996 0.036514826 0.012072845
0.013345694 0.035747703 0.061892707 -0.15883596 -0.022846678 -0.10971539 -0.067648456 0.010741131
-0.020794632 -0.06714713 -0.08865762 -0.07551398 -0.15997185 -0.07023585 -0.09163616 -0.11001236
-0.017214796 -0.038995862 -0.12338612 -0.03540486 -0.06234343 0.02796449 0.037914895 -0.0027551297
0.10042316 0.0640431 0.03457822 0.05540455 -0.0056206877 0.0017164621 0.09640935 0.025839739
0.04815204 0.054492004 0.03921009 0.09979699 0.018809184 0.018608937 0.0036268132 -0.2120161
-0.10043581 -0.05099359 -0.16661689 -0.0029331513 -0.04703306 -0.101245575 0.0013508463 -0.06680137
-0.18706574 -0.09248211 -0.12223606 -0.14119527 -0.09777082 -0.10750515 -0.09230177 -0.08816492
-0.14534861 -0.10354018 -0.015811214 -0.007900009 -0.038033217 0.009202449 0.012276035 -0.049007196
-0.022314865 -0.07663754 0.18452948 0.14743447 0.04639491 0.116837636 0.08060593 0.03260854
0.009756385 0.042002406 -0.0059879622 0.057536546 0.09932246 -0.0039043722 0.013237897 0.025974346
0.012105162 0.016564222 0.08025412 0.03162389 0.14702886 0.07016489 0.07250615 0.052711274
0.03461054 0.005934053 0.027843863 -0.0057094623 0.005217593 -0.043471146 0.04487398 -0.012515509
0.07410569 0.11993378 0.10282907 -0.044169106 0.04803435 -0.049518134 0.13812792 0.07937462
0.041017603 0.04668101 0.12862064 0.04285816 0.082564145 0.041461874 0.07697517 0.023447527
0.042295758 0.04280737 0.025912726 -0.016819248 -0.013509525 -0.015213014 -0.02271389 0.03741711
0.027620824 0.025350505 0.019737603 0.061952163 0.088358775 0.051558897 -0.008462828 -0.019007906
-0.022264477 -0.1311523 -0.1162811 -0.1325874 -0.08450294 -0.05793634 -0.046802744 -0.19039074
-0.13953371 -0.121280655 0.02719475 0.052104317 -0.002354862 0.12276028 0.01389032 -0.021311022
-0.017929573 -0.037281644 0.0357225 -0.17132193 -0.036712825 -0.08443742 -0.042999286 0.038854573
-0.056205623 -0.13941576 0.012561351 -0.079138055 0.10625111 0.08686308 0.06295455 0.13146237
00000000: f641 bd3d cbf8 c43d 5b82 953d 93b4 893d
00000010: 0f47 9b3b af39 e93c 1944 8d3d c826 f0bb
00000020: 1788 1cbc 7fa7 94bd 0d82 49bd f5a7 45bd
00000030: 6c62 c2bd 96ab 8abc 6c4d 7cbd 0bc7 05be
00000040: 2799 6fbd 1960 13bd 91b3 9bbd a6df 0dbd
00000050: bb74 62bd 633c 8dbd 1a8c 09bc 6313 f7bc
00000060: 3e2d 8ebd 4ac0 07bd cda7 7dbc e59a b03d
00000070: 17ea c03d 7a15 7c3d ec35 c63c 7dd3 273d
00000080: 0985 d2bc e929 373d 962d 9eba a5c9 c13c
00000090: 49db 963c 9c77 603c 06cc 193d 5e36 a83d
000000a0: 8e75 863d 7780 f8bc b7d6 ea3c 7d9c 9e3c
000000b0: 4c01 20bd 369b 113e bd7e 173e 800b c93d
000000c0: 04ac 843d d292 2a3d 4945 363c b274 5d3d
000000d0: 6fa9 d53c abf5 693c 7357 0d3e ff03 7a3d
000000e0: daf1 9a3d 66d0 ec3d f503 753d de51 a13d
000000f0: 76aa ca3d 0f36 a33d 9fe7 233c cac8 c63d
00000100: b891 973d c4d2 c63d 82f2 de3c a216 dc3d
00000110: b2e6 593d ae7d 863c ca2e 713d f034 2dbd
00000120: cd9d 93bd 0fc4 00bc b0e0 2abc c233 17bd
00000130: f147 00bd 5e6b ab3a dd40 06be 6224 e2bc
00000140: f755 81bd 68c4 cb3d d13d fb3b e45b 2b3c
00000150: b791 ff3d 7163 093e a3cd 8b3d ef11 f43c
00000160: 0f05 7a3c c201 a7bb bc44 f3ba 2e7f 003d
00000170: b8c4 6ebc 2687 d63d 9290 153d 2fcd 453c
00000180: e6a7 5a3c 2f6c 123d 3583 7d3d e5a5 22be
00000190: f528 bbbc 76b2 e0bd 468b 8abd 92fb 2f3c
000001a0: 8159 aabc 6f84 89bd 2092 b5bd 13a7 9abd
000001b0: a9cf 23be d0d7 8fbd bdab bbbd 294e e1bd
000001c0: 0b06 8dbc 20ba 1fbd ddb1 fcbd b004 11bd
000001d0: d35b 7fbd c915 e53c a64c 1b3d 688f 34bb
000001e0: a8aa cd3d 0729 833d e4a1 0d3d e2ef 623d
000001f0: bf2d b8bb e9fa e03a 4472 c53d dcad d33c
00000200: 133b 453d 0233 5f3d c29a 203d 5d62 cc3d
00000210: b815 9a3c c571 983c d4af 6d3b c01a 59be
00000220: 4ab1 cdbd a8de 50bd 9e9d 2abe 1d3a 40bb
00000230: bda5 40bd d759 cfbd e10e b13a 28cf 88bd
00000240: 298e 3fbe 4367 bdbd e656 fabd 7e95 10be
00000250: 113c c8bd a92b dcbd b608 bdbd cf8f b4bd
00000260: 44d6 14be e00c d4bd 8586 81bc 0a6f 01bc
00000270: b8c8 1bbd dec5 163c 6c21 493c c5bb 48bd
00000280: aacd b6bc 24f4 9cbd 4cf5 3c3e 10f9 163e
00000290: 9708 3e3d 9248 ef3d b914 a53d 8890 053d
000002a0: 3fd9 1f3c b70a 2c3d ab36 c4bb 71ab 6b3d
000002b0: 9369 cb3d 7fe0 7fbb c4e3 583c 27c8 d43c
000002c0: bb54 463c b1b1 873c 465c a43d 0d88 013d
000002d0: bc8e 163e 9cb2 8f3d 1b7e 943d c7e7 573d
000002e0: c8c3 0d3d 7272 c23b d018 e43c 7116 bbbb
000002f0: 58f8 aa3b cd0e 32bd c7cd 373d d90d 4dbc
00000300: b9c4 973d d79f f53d 0c98 d23d aaea 34bd
00000310: abbf 443d 87d3 4abd 6871 0d3e 298f a23d
00000320: 1302 283d 9634 3f3d 21b5 033e 0a8c 2f3d
00000330: 6417 a93d edd3 293d 28a5 9d3d 0715 c03c
00000340: 513e 2d3d c856 2f3d ed46 d43c 85c8 89bc
00000350: 0e57 5dbc 0140 79bc 7b12 babc af42 193d
00000360: 1145 e23c ddab cf3c c1b0 a13c 8dc1 7d3d
00000370: 72f5 b43d 6c2f 533d aca7 0abc 78b6 9bbc
00000380: fe63 b6bc ca4c 06be c924 eebd fec4 07be
00000390: e10f adbd a84e 6dbd 3cb4 3fbd caf5 42be
000003a0: ede1 0ebe fe61 f8bd 86c7 de3c 566b 553d
000003b0: 0754 1abb be69 fb3d 3a94 633c 7494 aebc
000003c0: 0ae1 92bc a3b4 18bd c251 123d 046f 2fbe
000003d0: 3060 16bd 87ed acbd 0520 30bd f925 1f3d
000003e0: de37 66bd 01c3 0ebe 20ce 4d3c 2213 a2bd
000003f0: 2f9a d93d 45e5 b13d 51ee 803d 129e 063e
