models/model.pth (torch_old, 989791 bytes, 32 tensors)

conv_block_1.Conv.weight f4 [16, 3, 3, 3]
000000 e6 02 21 be b0 6e 94 bc 11 33 1f be fa d9 f9 3d
       -0.15723762 -0.018119186 -0.15546824 0.12199779
000010 b8 e8 7a bd 8d 35 3f 3e 1e 74 aa 3d e0 1f 6d bd
       -0.061257094 0.18672772 0.08322929 -0.057891726
000020 26 b2 bf bd e5 c0 1e 3e 4d f6 31 be e6 dd 94 3d
       -0.09360151 0.15503271 -0.17379113 0.07268886
000030 34 fb 41 3d 87 7e dc bd fd c0 36 be 50 34 c5 3c
       0.047358707 -0.10766321 -0.17847057 0.024072796
000040 28 a3 c9 bc 2c 02 1e bd 4c 54 9a bd ce 34 82 bd
       -0.024613932 -0.03857629 -0.075356096 -0.06357728
000050 f2 42 bd 3d 51 cb 34 3e fe dd cd 3d f8 88 eb bc
       0.092412844 0.17655684 0.10052107 -0.028751835
000060 ee f0 c4 3d 19 11 3c 3e 26 7d fe 3d ee 2b 20 be
       0.09616266 0.18365897 0.12426214 -0.15641758
000070 03 57 27 be f2 b6 da 3d ed 55 1e 3e 38 6e 26 be
       -0.16341786 0.10679425 0.15462466 -0.16252983
000080 a6 ea b2 3d 98 c9 ca 3c 92 99 f2 3d 65 b3 28 be
       0.08736162 0.02475433 0.118456975 -0.16474684
000090 68 59 29 3d c2 05 af 3d 37 c2 44 3e dc b3 6f bd
       0.04134503 0.0854602 0.19214712 -0.058521137
0000a0 b0 66 97 3c 2e 5f a0 3d 90 25 4a bc 10 65 7b bc
       0.018481582 0.07830654 -0.012338057 -0.015343919
0000b0 88 5f 93 3c b5 b2 15 be 3a 53 83 3d da c8 06 be
       0.017989889 -0.14618953 0.064123586 -0.13162556
0000c0 e0 56 38 3d ac 87 5a 3d 72 d8 88 bd 8a c8 06 be
       0.045004725 0.053352043 -0.06681909 -0.13162437
0000d0 52 d6 d1 3d 64 00 5a 3d 95 dd 16 3e 20 0a 91 bb
       0.102459565 0.05322303 0.14732964 -0.004426256
0000e0 70 cb 15 be 5a f4 e7 3d 87 e5 2f 3e de 9a f2 bd
       -0.14628386 0.11325903 0.17177401 -0.11845945
0000f0 f6 71 00 be aa a3 ba 3d 38 31 10 3d 67 bc 12 3e
       -0.12543473 0.09113248 0.03520319 0.14329682
000100 e0 e1 3b bc 73 77 b6 bd 4a e0 99 3d 72 11 33 be
       -0.011467427 -0.08909502 0.07513483 -0.17487124
000110 3a 6d 10 be e5 f8 f4 bd 20 cf c6 3b 5f 60 0d 3e
       -0.14104167 -0.11961535 0.0060671717 0.13806294
000120 28 ec 44 be 7a 19 a2 3d 20 bb 92 3c c2 0b 9e bd
       -0.19230711 0.079150155 0.017911494 -0.077170864
000130 e8 ba 9b 3c 80 92 49 3b bd 02 d2 bd aa 69 09 be
       0.019010022 0.0030757487 -0.102544285 -0.13419214
000140 fe a9 cf 3d a5 1a 2b 3e 84 9a 28 bd dd 9e 40 be
       0.10139845 0.16709383 -0.041162983 -0.18810602
000150 d2 f0 c5 3d 15 7b 19 3e b0 02 81 bd 80 99 17 3b
       0.096650735 0.14988358 -0.06299341 0.0023132265
000160 05 69 dc bd 80 3e 16 3c d0 2b dd bc cc 02 1e 3d
       -0.107622184 0.009170175 -0.02699843 0.038576886
000170 05 95 42 3e 37 d3 11 3e b7 90 14 3e 40 79 61 3d
       0.19002159 0.14240728 0.1450833 0.055047274
000180 4c ec 8e bd 01 16 2f be 30 22 54 3d f0 23 34 3c
       -0.06978664 -0.17098238 0.051790416 0.010994896
000190 b7 21 3f 3e 90 8d 92 3c 56 1b a7 3d 01 c0 33 3e
       0.18665205 0.017889768 0.08159511 0.17553712
0001a0 50 9e 19 bd f5 9b 44 3e 13 7d 34 3e 65 9d 08 3e
       -0.037504494 0.19200118 0.17625837 0.13341291
0001b0 fe e7 9d 3d d1 11 3b be a6 64 b2 3d 30 af fb 3c
       0.077102646 -0.18268515 0.087106034 0.030723184
0001c0 cd a5 1f be f2 9c d6 3d 99 6d 23 be 80 c7 fc 3a
       -0.15590592 0.10479154 -0.15959777 0.001928553
0001d0 b2 88 9d 3d 2a df 1c be d0 ab d5 bd 57 74 1d be
       0.07692088 -0.15319505 -0.10433161 -0.15376411
0001e0 c8 77 69 bd 69 2d 0a 3e 74 ca 6c 3d 41 69 18 3e
       -0.056998998 0.13493885 0.05781026 0.14883901
0001f0 eb c8 d8 bd 40 e3 af bc 51 aa 02 be 21 6b 2e 3e
       -0.10585197 -0.021470666 -0.12760283 0.17033054
000200 ec 97 32 be 24 15 1f bd 9e 12 83 3d 15 7b 44 3e
       -0.17440766 -0.03883852 0.06400035 0.19187577
000210 aa a5 9a 3d 64 d1 6d bd 3c e2 09 be 70 f8 33 bd
       0.07551129 -0.05806102 -0.13465208 -0.0439381
000220 22 9d c6 3d 1a 02 84 bd c0 27 e2 3b 82 95 fa 3d
       0.096979395 -0.06445713 0.006901711 0.122355476
000230 48 6b 84 bc 76 6f bf 3d 2a 10 85 3d dd c9 00 be
       -0.016164437 0.09347431 0.06497224 -0.12577005
000240 4a b7 26 be ff d5 b5 bd b4 71 71 bd 6c e5 14 be
       -0.16280857 -0.08878707 -0.058946326 -0.14540642
000250 68 53 8b 3c 5c 52 0e bd 1a 24 28 be 55 af 31 3e
       0.017007545 -0.034746513 -0.16420022 0.1735204
000260 a4 45 3e 3d de d4 38 be 04 60 a9 bd 76 13 bf 3d
       0.046453133 -0.18049952 -0.08270267 0.09329884
000270 3b 27 17 3e dc c7 47 3d fb 10 3d be 1c 86 01 bd
       0.14761059 0.048774585 -0.18463509 -0.031622037
000280 90 71 97 bc c4 bd 4e 3d 52 43 0b be 70 01 d4 bc
       -0.018486768 0.050473943 -0.135999 -0.025879592
000290 b6 2d 89 3d 3b b0 ed bd 15 c8 8e bd 70 ce 7d bc
       0.06698172 -0.11605879 -0.06971756 -0.015491113
0002a0 d9 0c e5 bd 53 29 12 3e 04 80 1f bd f6 35 3c be
       -0.11184091 0.14273576 -0.038940445 -0.1837996
0002b0 0d 48 15 3e da b5 94 3d aa 27 d7 3d 50 d5 3a bd
       0.14578266 0.07261248 0.10505612 -0.045613587
0002c0 b0 74 bb bc db c9 25 be 10 2a 82 bc 53 9c 1b 3e
       -0.02288279 -0.16190283 -0.015889198 0.15196352
0002d0 ab ee 22 3e 2b c7 12 3e c4 06 c9 bd 24 3a df bd
       0.15911357 0.14333789 -0.098157436 -0.10899761
0002e0 1c 0d 59 3d 7b 67 fe bd d6 d2 ab 3d 20 77 86 3b
       0.052991018 -0.12422081 0.08389823 0.0041035563
0002f0 d0 3c 3e bd bc 73 1c be 4d 00 05 3e 28 f2 e4 bc
       -0.046444714 -0.15278524 0.12988396 -0.0279475
000300 ee 07 ae 3d bc 88 36 bd b8 6d bd bc 3e 8a 0a be
       0.08497606 -0.044563994 -0.023123607 -0.13529298
000310 6f ae 24 3e 8a f5 ee 3d fe e7 37 be 78 81 f1 3c
       0.16082166 0.116679266 -0.17959592 0.02948068
000320 d0 9c f7 bd ae 01 f0 3d b4 12 5b bd 00 58 94 b8
       -0.120904565 0.117190704 -0.053484634 -7.073581e-05
000330 78 07 8f bc e2 c9 87 3d c0 62 65 bd 80 2f 59 bc
       -0.017459616 0.06630303 -0.05600238 -0.013255954
000340 cf 36 f4 bd 6e 3d e7 3d bd 5b 2a 3e 10 37 75 bd
       -0.119245164 0.11291014 0.16636558 -0.059866965
000350 00 36 f8 3b 30 12 c6 3c 77 d1 44 3e 00 aa fb bd
       0.0075747967 0.024178594 0.1922053 -0.12288284
000360 c3 fd 07 3e ec 2e 25 bd 14 2d c6 bd 4d 22 19 be
       0.13280396 -0.04032795 -0.09676567 -0.14954491
000370 de c0 ca 3d f0 ba fd bd 94 66 70 bd fd f6 3b be
       0.09900068 -0.12389171 -0.058691576 -0.18355937
000380 a5 8c ca bd 31 f9 f7 bd 20 92 65 bc ed 4e 03 be
       -0.09890107 -0.12108076 -0.01401189 -0.12823077
000390 10 03 02 3c 00 d9 c2 3a 30 d4 e1 bc 0a 12 90 3d
       0.0079353005 0.0014865696 -0.027567 0.07034691
0003a0 2d cf 11 3e 32 8f bb 3d c2 5f 91 3d a0 33 40 3d
       0.14239188 0.09158172 0.070983425 0.046924233
0003b0 64 ea 73 3d c0 a6 90 bc 86 74 c3 3d 3c c7 ec bd
       0.059549704 -0.017657638 0.095437095 -0.115614384
0003c0 50 0c 04 bc 43 05 a7 bd bd f0 04 3e 6c 4f 22 3d
       -0.008059576 -0.081553005 0.1298246 0.039626524
0003d0 b9 67 26 be 8d 09 31 3e 73 e7 30 3e 4d 9c 02 3e
       -0.16250505 0.172888 0.17275791 0.12754937
0003e0 b2 51 8e 3d 0f 0a 39 3e 77 ea 3b 3e e1 1b 32 3e
       0.06949176 0.18070243 0.1835116 0.17393447
0003f0 58 c4 41 3d 3a 39 10 be d6 8c 8d bd 76 5a 37 be
       0.04730639 -0.1408433 -0.06911628 -0.17905602

conv_block_1.Conv.bias f4 [16]
000000 8c 32 13 be 5c 35 13 be 38 0b a7 bc 52 42 de 3d
       -0.14374751 -0.14375824 -0.020391092 0.10852493
000010 af bc 08 3e e5 70 09 3e bb 52 a6 bd 82 23 d0 3d
       0.13353227 0.13421972 -0.08121248 0.101630226
000020 60 fe f3 bc 99 99 1c 3e e8 58 c0 bd 36 b4 af 3d
       -0.029784381 0.15292968 -0.093919575 0.085792944
000030 21 9a b6 bd 73 55 39 3e fc ea 3a 3d b2 63 b1 3d
       -0.089161165 0.18099003 0.045634255 0.086615935

conv_block_2.Conv.weight f4 [32, 16, 3, 3]
000000 12 ee 5c 3d 5c 26 af bc 68 3d 49 bd 43 8d 5d bd
       0.05393798 -0.021380596 -0.049130827 -0.054089796
000010 a8 4b 1e bc c0 8e d2 bb 59 97 82 3d f9 46 84 3d
       -0.009661593 -0.0064257085 0.063765235 0.064588495
000020 ec fb 98 bc 56 94 e8 bc bc 84 fa bc 06 04 14 bd
       -0.018674813 -0.028391045 -0.03058087 -0.03613665
000030 eb 92 28 bd 45 5b 99 3d d8 f6 41 bd d8 ce 19 bc
       -0.041155737 0.074881114 -0.04735455 -0.009387694
000040 c6 f9 5b bd 22 92 33 3d 46 f4 f5 bc d8 61 41 bc
       -0.053705 0.043840535 -0.030023705 -0.011803113
000050 2e d9 80 bd 9c fa de 3c a0 79 4e 3b 60 9c 2a 3c
       -0.06291424 0.02721911 0.00315056 0.010413259
000060 d0 a2 57 bd 0e 47 7c bd 90 af b3 3b 4e 25 6d 3d
       -0.052645504 -0.0615912 0.005483575 0.057896905
000070 a0 fc ce 3c 00 76 52 b9 7f 21 82 3d 5f ec 9e bd
       0.025266945 -0.00020071119 0.06354045 -0.07759928
000080 20 58 f9 bc 3a 23 66 3d 76 7f d0 bc 7e 6e 70 3d
       -0.03043753 0.05618594 -0.025451403 0.058699124
000090 c0 70 fb 3b e0 e6 17 3b 3f d2 9e 3d cd c1 a8 3d
       0.007673353 0.0023178384 0.07754945 0.082400896
0000a0 c0 45 b6 bc fc c7 80 3c f6 ca 55 bd db d2 38 bd
       -0.022250056 0.01572036 -0.05219551 -0.045122962
0000b0 73 5a 35 bd 2d 37 82 3d d2 0e 2c 3d 80 b4 2a bc
       -0.044275712 0.0635818 0.04200632 -0.010419011
0000c0 a9 a7 9f 3d 30 4a 9f bc 33 cd 58 bd d8 80 16 bc
       0.077956505 -0.019444555 -0.05293007 -0.009185992
0000d0 f6 a6 a7 bd 4b 70 4d bd c0 a2 65 3c c0 0c f1 bc
       -0.08186142 -0.05015592 0.014015853 -0.029425025
0000e0 58 5c a4 bd 14 5a 9b bc 16 a4 c4 bc 8a 0b 79 3d
       -0.08025426 -0.018963851 -0.024004024 0.06080202
0000f0 ab 7c 1f bd 9b 0a a6 3d c1 16 8b 3d e2 b3 1a 3d
       -0.038937252 0.081074916 0.06791449 0.037769206
000100 0e f7 02 3d 2a 66 53 3d 8e 9e 6b 3d fd 40 a3 3d
       0.03197389 0.051611103 0.057524256 0.0797138
000110 a4 18 91 bc 83 79 6a bd 20 da 08 3c 48 55 11 3c
       -0.017711945 -0.05724479 0.008352786 0.00887043
000120 f6 93 9e bd a2 f3 1d 3d 00 9c f1 ba 5e ff 21 3d
       -0.07743065 0.038562424 -0.0018433332 0.039550178
000130 7b 5c 6b bd c6 5b 24 3d 90 d8 07 bd be ea 38 bd
       -0.057461243 0.040126584 -0.033165514 -0.045145743
000140 7b bc 41 bd 38 af 00 bd ab 58 6f bd 70 23 f1 3c
       -0.04729889 -0.0314171 -0.05843417 0.029435843
000150 26 77 57 3d a0 dc 86 bc 30 de 1b bd 8b 94 9d 3d
       0.052603863 -0.016462624 -0.03805369 0.07694348
000160 2c 4a 8b 3c f0 7d b3 bc 08 b5 42 bd 03 2f 80 3d
       0.017003141 -0.021910638 -0.047535926 0.06258967
000170 70 0f 93 3c da 4c 40 3d d6 14 2b 3d e0 18 60 3c
       0.017951697 0.04694829 0.041767918 0.013677806
000180 f4 0b a3 bd 46 48 ba bc 4a 9a 35 3d 60 fa 69 bd
       -0.07961264 -0.02273954 0.044336595 -0.05712354
000190 a0 26 87 3c 7d 32 93 3d a1 9c a0 3d b9 a8 8e 3d
       0.01649791 0.07187364 0.078423746 0.06965775
0001a0 95 41 80 3d 34 67 95 3c 6f 57 91 bd 03 33 3a bd
       0.06262509 0.018237688 -0.07096755 -0.045458805
0001b0 58 a9 03 bc 88 68 70 3c 74 b0 96 3c 28 9c 07 3d
       -0.00803598 0.01467336 0.018394686 0.033107907
0001c0 40 db 1e bc af 8e 9d bd 4d 6a a1 3d 92 ac 61 3d
       -0.009695828 -0.0769323 0.078816034 0.055096216
0001d0 68 15 08 3d 08 7a 21 3d c4 af be 3c b0 2c ee bb
       0.03322354 0.03942302 0.023277171 -0.0072685108
0001e0 44 56 cb 3c 32 4f 89 bd 72 19 79 3d 00 8f b7 b9
       0.024821408 -0.067045584 0.060815282 -0.00035011023
0001f0 f8 5c 0e bc 6c d9 ea bc ca 58 47 3d 78 7b 16 bd
       -0.008689158 -0.028668128 0.04866866 -0.036738843
000200 a0 23 5f 3b 4d ef 9b 3d 70 37 bf 3c d3 7c 99 3d
       0.0034048334 0.076140024 0.023341864 0.074945115
000210 f0 1a 92 bb 8a 73 6e 3d 04 66 e2 3c 83 5b 01 bd
       -0.0044587776 0.058215655 0.027636535 -0.031581413
000220 62 44 1d 3d f9 21 a9 3d 30 be f6 3b e0 72 b5 bc
       0.038395293 0.08258433 0.0075299963 -0.022149503
000230 2a b2 1f 3d 03 8c 15 bd 58 62 5d 3c 60 24 88 3c
       0.03898827 -0.03651048 0.0135122165 0.016618907
000240 9e 34 6e bd 88 27 10 bc 80 ad 10 3c 50 9b 32 bd
       -0.05815565 -0.0087984875 0.008830428 -0.04360515
000250 10 34 a4 bb 3c 87 a9 bc 62 47 46 3d a2 91 45 3d
       -0.005011089 -0.020694368 0.04840792 0.04823459
000260 30 11 ea 3c ce 9e 5d 3d d6 15 2a 3d 00 b0 29 3a
       0.028572649 0.054106526 0.04152473 0.00064730644
000270 dc c7 a0 bc 43 e3 3f bd 70 ba 7f bd e0 75 3f 3b
       -0.01962655 -0.046847593 -0.06243366 0.0029214546
000280 a2 eb 6c 3d 92 59 17 3d 88 69 10 3d b9 b3 87 3d
       0.057841904 0.036950655 0.035256892 0.06626076
000290 e0 0c 46 bc a3 a8 6f bd f0 3d a1 3c 4f b8 83 3d
       -0.012088031 -0.058510434 0.019682854 0.064316384
0002a0 1e eb 2f 3d 65 79 81 3d 0a d3 1c 3d 2c df c1 3c
       0.042948835 0.06321982 0.0382872 0.023665987
0002b0 b8 46 53 bd ee ef 2d 3d 68 1c 16 3d 16 8a 65 bd
       -0.051581115 0.042465143 0.036648184 -0.056039892
0002c0 56 60 61 3d 60 99 56 bb 96 36 d1 bc ef 2e 81 bd
       0.055023514 -0.0032745227 -0.025538724 -0.0630778
0002d0 38 5a 6f bd 50 0f 6f bd 80 71 5f ba 60 d9 c8 bc
       -0.05843565 -0.058364213 -0.0008523688 -0.024517715
0002e0 62 15 4a 3d af 7f 85 3d d8 8f 4e 3c 00 d3 3a 3b
       0.0493368 0.06518494 0.012607537 0.0028507113
0002f0 3a b9 2a 3d fa 02 12 3d 30 35 b5 bb 22 b4 3a 3d
       0.041680552 0.03564737 -0.005530022 0.045581944
000300 32 c9 05 3d dc 62 cd bc c0 f8 a9 bc 5e 5b 6a 3d
       0.032662578 -0.025071554 -0.020748496 0.05721604
000310 7a ea 36 3d 13 6c 21 bd 28 e9 71 3c c9 4f a0 3d
       0.044657208 -0.03940971 0.014765061 0.07827718
000320 86 11 2f bd 68 2a 0d 3c 00 4e 11 bd 00 f2 f4 3c
       -0.04274132 0.0086160675 -0.035474777 0.02990055
000330 00 8e 1d bc 1a 39 a0 bd 18 16 0e 3c 6c 3b 8d bd
       -0.009616375 -0.07823391 0.00867226 -0.068960994
000340 73 9e 87 3d 52 23 57 3d fc 7c d8 bc b6 e3 cc bc
       0.06622019 0.05252392 -0.026426785 -0.025010925
000350 40 cd 8a 3b ae a0 32 bd f2 60 10 3d fc a3 9c bc
       0.0042358935 -0.043610267 0.035248704 -0.019121163
000360 f1 57 86 3d 46 48 6e bd bb 73 38 bd 7a 6e 40 3d
       0.06559742 -0.058174394 -0.045032244 0.04698036
000370 3c 45 fd 3c 64 24 91 3c a8 03 5e bc f1 d2 91 3d
       0.030916803 0.017717548 -0.013550676 0.07120312
000380 6a 4a 43 3d 1e 28 72 bd aa ee 42 3d a4 0f bd 3c
       0.04767839 -0.05912029 0.04759089 0.023078747
000390 81 4c aa 3d 5a 31 4e 3d ab d2 81 bd 32 65 9f bd
       0.08315373 0.050340034 -0.0633901 -0.07782973
0003a0 36 df 4d bd 10 bc e1 3c 13 0d 83 3d 02 01 5d 3d
       -0.0502617 0.027555496 0.06398978 0.05395604
0003b0 2e 53 3f bd f1 9f 99 3d e6 a9 f5 bc 00 08 b2 3b
       -0.046710186 0.075012095 -0.02998824 0.0054330826
0003c0 38 e4 41 bd 39 fd 9f 3d 80 36 54 3b dc 9a 82 bc
       -0.047336787 0.0781197 0.0032381117 -0.015942983
0003d0 3a 70 7c 3d 8d 2c 82 3d d6 cf 8b bd ce d3 32 bd
       0.061630465 0.06356154 -0.06826751 -0.043659024
0003e0 eb a8 05 bd ca a6 2f 3d 24 ee db 3c 3a 1f 3d 3d
       -0.032631796 0.04288367 0.026846953 0.046172358
0003f0 90 a8 bd 3c 80 c6 5d bd 72 c5 5a 3d 60 59 c0 bc
       0.023151666 -0.054144382 0.053410955 -0.023480117

conv_block_2.Conv.bias f4 [32]
000000 3f 55 8b 3d b6 8a 35 bd 9a ee 6a 3d 80 9e eb 3c
       0.06803369 -0.04432174 0.057356454 0.028762102
000010 6b 64 9b 3d 5b 06 6c bd ca ed 12 3d 50 24 71 bd
       0.075875126 -0.05762325 0.035871305 -0.05887252
000020 a7 0f 88 3d 73 5f 56 bd 43 4b 2a bd 20 9e 20 bc
       0.066436104 -0.05233712 -0.04157568 -0.009803325
000030 4b 99 91 bd 38 56 52 bd 29 76 85 3d f5 cc 96 3d
       -0.071093164 -0.051351756 0.06516678 0.07363311
000040 fb 88 00 bd e6 a3 70 bd 04 26 9e 3c d9 6f 93 3d
       -0.031380635 -0.058750056 0.019305237 0.071990676
000050 0e c6 2a 3d a0 bc 6a 3c 0b 68 68 bd d5 e1 8d 3d
       0.041692786 0.014327198 -0.056739848 0.0692784
000060 06 d3 96 bd e0 ea e7 bc 5b ea 8e 3d c2 f4 3f 3d
       -0.07364468 -0.02831024 0.069782935 0.04686428
000070 fc 7c e9 3c 0e a9 78 3d ce 62 4c 3d 10 fc 9b bb
       0.02850198 0.060708098 0.049898915 -0.004760273

conv_block_3.Conv.weight f4 [48, 32, 3, 3]
000000 68 86 de 3b 7d 29 1b 3d 4d 4a 19 3d 6e 85 b9 bc
       0.006790925 0.037881363 0.037424374 -0.022646632
000010 02 22 c2 3c b6 c6 06 bd ac d9 63 bd fa f3 bc 3c
       0.023697857 -0.03290435 -0.05562751 0.023065556
000020 96 80 67 bd 6a 49 b7 3c bc 80 41 bd 54 d1 56 3c
       -0.056519113 0.022373874 -0.04724191 0.013111431
000030 cc 6d 52 3c 7a 83 82 bc b1 b8 61 3d d5 50 2a 3d
       0.01284356 -0.015931834 0.055107776 0.041580994
000040 7f a5 1b bd 86 29 e5 3c e0 53 72 bb 72 c3 e0 3c
       -0.037999626 0.027973901 -0.0036976263 0.027436946
000050 de 89 fc 3c 88 eb db bc dc 70 4f 3c 08 39 84 bb
       0.030827459 -0.026845708 0.012661185 -0.004035119
000060 92 f0 cb bc cf 7d 3a bd 3d f0 61 3d 8a 7d ce bc
       -0.024894986 -0.045530137 0.05516075 -0.025206346
000070 ae e6 4a bd 98 31 2f bd c4 63 22 bd e2 94 bb 3c
       -0.0495364 -0.042771906 -0.039645925 0.022898141
000080 c8 18 bc bc 4d dd 55 3d 00 5c 5d 3a c8 81 9f bc
       -0.022961035 0.052213002 0.000844419 -0.019471064
000090 8d 8f 6a 3d 2c a2 5c 3c 34 d4 7e 3c 16 40 95 3c
       0.057265807 0.013466399 0.015553523 0.018219035
0000a0 be 4a b9 3c 4e 50 47 bd 35 a9 10 3d 24 a2 58 3c
       0.022618648 -0.04866057 0.03531762 0.013222251
0000b0 3a c7 d0 bc db 2c 34 3d 18 f0 5c bc 7b eb 3f 3d
       -0.025485624 0.04398809 -0.013484977 0.04685543
0000c0 92 c4 e6 3c 90 43 8d bc 6e af 3d bd f2 18 e1 bc
       0.028169904 -0.01724413 -0.04630988 -0.027477715
0000d0 78 6f fb bb 0a 07 aa 3c 66 db 97 3c 85 e0 48 3d
       -0.0076732 0.02075531 0.018537235 0.049042244
0000e0 61 b1 28 3d ca aa fe bc 18 30 a6 bc 34 cc 8a bc
       0.041184787 -0.031087298 -0.020286605 -0.016943075
0000f0 64 4f 30 bc 3e e8 d3 bc 3e 79 5d bd fd 4a 41 3d
       -0.010761116 -0.025867578 -0.054070704 0.047190655
000100 51 94 39 3d b5 61 53 3d 71 40 59 3d be 68 c0 3c
       0.04530746 0.051606853 0.05303997 0.023487445
000110 1e 7e 2c bd e8 43 a1 3b df d7 3b bd d4 48 68 3c
       -0.042112462 0.004921425 -0.045860168 0.01417752
000120 48 49 34 bd a2 ea dc bc e5 81 4d bd d7 bd 6b bd
       -0.0440152 -0.02696735 -0.050172705 -0.057554092
000130 91 c8 62 3d d3 19 2e bd cb 23 70 3d f8 a4 dc 3b
       0.055367056 -0.042505097 0.058627885 0.006733533
000140 2b a8 47 bd 66 96 8f bc cb a1 65 bd a6 c8 c3 3c
       -0.04874436 -0.01752777 -0.0560625 0.023899388
000150 18 38 a5 3b 79 8b e3 bc 68 c6 79 bc cb 81 12 3d
       0.0050420873 -0.027776467 -0.015245058 0.03576831
000160 00 69 33 bd 78 d9 f8 3b 8a ca 3f bd 80 23 e3 39
       -0.043801308 0.0075942837 -0.046824016 0.00043323264
000170 50 fa ef bb 9c 31 50 3c 72 75 85 3c c8 28 d8 bc
       -0.0073235407 0.01270714 0.016291354 -0.026386634
000180 e2 51 d8 3c b8 df 54 bd a5 bc 44 bd f0 8b 1a bb
       0.026406232 -0.051971167 -0.048031468 -0.0023581944
000190 b0 2e 26 bd de a3 64 bd 3f 0c 2f 3d d0 f8 27 bc
       -0.04057187 -0.05582034 0.04273629 -0.010252193
0001a0 da 41 ac 3c 16 c7 a6 3c aa 7b a2 3c d8 f2 a9 3b
       0.021027494 0.020358603 0.019834358 0.00518642
0001b0 ca 4c 91 bc b5 87 54 bd 5c 4f 06 bd 5e ba 8b 3c
       -0.017736811 -0.051887233 -0.032790527 0.01705664
0001c0 c0 2a 4d bc ea 2d 71 bd 8b 3a 4a 3d 85 b5 3f bd
       -0.012522399 -0.058881678 0.049372237 -0.04680397
0001d0 b2 c5 fd 3c 8c 57 30 bd 00 7b c8 3a 98 19 49 bd
       0.030978058 -0.04305224 0.0015295446 -0.049096674
0001e0 49 d6 0e 3d 99 65 6f 3d 02 03 a2 3c ac ad 6a 3c
       0.034872327 0.0584465 0.019776825 0.014323633
0001f0 9a 3c 64 bd fd 85 67 3d ce cc ea bc e9 da 67 3d
       -0.055721857 0.056524266 -0.028662112 0.056605253
000200 72 e0 27 bd 7d e9 10 bd 88 12 3e bd b9 13 26 bd
       -0.040985532 -0.03537892 -0.04640439 -0.040546153
000210 78 0e 71 bd c0 24 17 3b e3 4c 56 3d 2b 33 15 3d
       -0.05885169 0.0023062676 0.05231942 0.03642575
000220 fa e7 dc 3c c5 62 02 bd 67 a8 38 bd da 68 e9 bc
       0.026966084 -0.031832475 -0.045082476 -0.02849238
000230 ae a3 8c 3c 87 3d 5b 3d 98 f7 09 bc 1e 0c f0 bc
       0.017167892 0.053525474 -0.008420847 -0.029302653
000240 67 2c 4e bd 8e c4 da 3c b4 08 9d bc 51 c4 11 3d
       -0.050335314 0.026705053 -0.019169189 0.035587613
000250 ed 18 58 3d ab 3d 46 3d 37 37 2f 3d 9d ec 37 bd
       0.052758146 0.048398655 0.042777266 -0.044903386
000260 98 88 44 bc 5f 66 64 3d d8 0b 3b bd 2a 69 c0 bc
       -0.011995457 0.05576169 -0.045665592 -0.023487646
000270 b6 63 07 bd c2 b3 30 bd 77 73 68 3d 4f 60 1f 3d
       -0.033054076 -0.04314018 0.05675074 0.038910206
000280 4b 10 64 3d 17 82 2b 3d 78 22 d6 bb 54 8b 3c bd
       0.0556796 0.04187211 -0.0065348707 -0.04603131
000290 00 9f a1 3a f3 5b 54 3d 4a ab 32 bd 71 d0 33 3d
       0.0012330711 0.051845502 -0.043620385 0.043899957
0002a0 f1 4f 65 3d 70 05 d9 bc d6 b1 03 bd 89 0f 0f bd
       0.05598444 -0.02649185 -0.03215202 -0.034926925
0002b0 4d 45 5d bd 56 f5 83 3c 88 f1 de bc 7a e6 f1 3c
       -0.05402117 0.016108196 -0.02721478 0.029528845
0002c0 a2 6e b5 3c fc 36 2c bc 70 e9 44 bd ca b3 f5 3c
       0.02214748 -0.010511156 -0.048074186 0.029992957
0002d0 3f 9d 61 3d 96 6b 89 3c 91 4d 6c 3d 6c d4 12 3c
       0.055081602 0.016774934 0.05769116 0.008961778
0002e0 7e fc 14 bd 5d 14 09 3d d2 cf 14 bd d9 e4 6b bd
       -0.036373608 0.033466686 -0.036331005 -0.057591293
0002f0 6f 17 04 3d c0 d9 6b bd 95 84 6d 3d 8e 3f ff 3c
       0.03224891 -0.05758071 0.05798777 0.031158235
000300 1a 51 aa bc 5c 60 af bc cb 91 5b 3d 56 4a f6 3c
       -0.020790625 -0.021408252 0.053605836 0.030064743
000310 b8 5b b5 3b 18 28 6a bd 18 4a 8a 3b 7f 91 03 3d
       0.0055346154 -0.057167143 0.0042202584 0.032121178
000320 56 ba 00 bd ae 14 50 bd 77 b0 6b 3d 8a d9 f1 3c
       -0.031427704 -0.05080097 0.057541337 0.029522676
000330 88 b6 d7 3b 78 ea 86 bc fb 2c 6d 3d d0 75 41 bd
       0.0065830387 -0.016469225 0.057904225 -0.047231495
000340 38 90 4e bc b6 a3 38 bd 51 45 0c 3d 6b 8c 38 3d
       -0.012607627 -0.045078002 0.034245793 0.045055788
000350 75 10 32 bd 80 29 05 3b d2 0c 9d 3c 78 69 93 bb
       -0.043472726 0.0020318925 0.019171152 -0.004498657
000360 0e 4e de 3c 22 91 04 bd 0b 58 66 3d 1d 16 5f bd
       0.027136829 -0.032364972 0.056236308 -0.05446445
000370 16 ab 82 bc 39 a0 28 3d 76 3a 9b bc a3 15 48 bd
       -0.01595072 0.041168425 -0.018948775 -0.04884876
000380 88 22 2c bd e8 93 fe 3b 71 08 6d 3d de 9b c7 3c
       -0.04202512 0.0077690966 0.05786938 0.024366315
000390 58 15 b5 bb b4 82 bf bc 38 5d fe bb cc c5 03 bc
       -0.005526226 -0.023377754 -0.0077625774 -0.008042764
0003a0 e0 fa 4a bd d0 0b 75 3b e5 94 3e bd 56 74 82 3c
       -0.04955566 0.0037391074 -0.046528716 0.015924614
0003b0 d8 43 b6 3b 62 bc fa bc fa 24 b0 3c 98 9e 14 bd
       0.005562287 -0.030607406 0.021502007 -0.03628406
0003c0 ad fe 32 3d 40 9b 56 bc be 65 32 bd fb 40 57 bd
       0.04369991 -0.013098538 -0.04355406 -0.052552205
0003d0 04 bf b2 bc 1a e7 9d bc ed 7a 04 3d b0 8a 55 bc
       -0.021819599 -0.019275237 0.032343794 -0.013033554
0003e0 db a1 24 bd 40 77 2b bc 09 53 f1 bc d3 7f 18 3d
       -0.04019342 -0.010465443 -0.02945854 0.037231278
0003f0 92 9b d3 bc 20 24 bf bc d8 28 d3 bc d4 b0 c6 bc
       -0.025831018 -0.023332655 -0.025776312 -0.02425424

conv_block_3.Conv.bias f4 [48]
000000 ed 9d 3e 3d 24 1d 01 bc 66 35 92 3c ef 1a 6d 3d
       0.04653733 -0.007880483 0.017847728 0.057887014
000010 ba 40 9e bc 8b 3a 57 3d fc 08 24 3c ee 5d ca 3c
       -0.019317973 0.052546065 0.010011908 0.024702992
000020 d1 ef 35 3d 36 37 e2 3c bd c5 0a 3d fc e6 3c 3c
       0.04441816 0.027614217 0.033879984 0.01152968
000030 ed ef 46 3d 00 4a ec 38 1e 6b a8 3c 48 d4 f7 bb
       0.048568655 0.000112671405 0.02055889 -0.0075631477
000040 96 a7 ba 3c fe c7 2a bd 4a 01 81 3c e0 08 c8 3a
       0.02278499 -0.041694634 0.015747685 0.0015261434
000050 92 ba 41 bd 74 1c 70 3c 6a cb fa 3c 8a a7 93 bc
       -0.047297068 0.014655221 0.030614574 -0.018024225
000060 5c 71 14 3c a5 b4 6b 3d 88 f5 82 bb 98 e6 11 bc
       0.00906023 0.057545323 -0.0039965548 -0.0089050755
000070 22 95 46 bd 03 c2 44 3d a4 48 5d 3c c0 ac 00 ba
       -0.048482068 0.048036586 0.013506088 -0.0004908554
000080 ff 59 2c 3d 7e 96 f0 3c db 6b 5a 3d a1 11 1a 3d
       0.042078014 0.029368635 0.053325515 0.03761447
000090 dc 4b 81 bc a6 dd 12 bd cc af b7 bc 49 e2 42 3d
       -0.015783243 -0.03585591 -0.022422694 0.047579084
0000a0 9c 5b 4a bc a0 88 52 bc 76 43 be bc 2d e8 05 bd
       -0.012350943 -0.012849957 -0.023225527 -0.032692123
0000b0 29 f2 01 3d 1b 65 29 3d 4a 80 00 bd 39 d8 5d 3d
       0.031725083 0.041356187 -0.031372346 0.054161284

res_block_1.0.Conv.weight f4 [48, 48, 3, 3]
000000 58 bf ab 3b f4 7f 07 3c a0 17 44 3c 98 4f 02 3c
       0.005241316 0.0082702525 0.011968523 0.007953547
000010 16 d6 e0 3c 80 4e b1 3b a4 5a 48 bc 83 92 44 3d
       0.027445834 0.0054109693 -0.012228642 0.047991287
000020 3c 37 ec bc 5d e5 30 3d b6 b6 94 3c 77 a5 37 bd
       -0.028834932 0.043187488 0.01815353 -0.044835534
000030 8d e6 e2 bc de 02 e0 bc e2 e5 c8 3c 00 4a 99 b9
       -0.027697826 -0.027345117 0.02452368 -0.00029237568
000040 4d f2 20 bd 94 d1 04 bc 24 a3 24 3c 9d c2 29 3d
       -0.039293576 -0.008106608 0.010048661 0.041445363
000050 1c 69 4c 3c 52 45 b5 3c e0 77 91 bc 80 07 18 3c
       0.012476232 0.022127781 -0.017757356 0.009279132
000060 97 39 21 3d 8b a7 40 3d 13 39 fe bc ba 88 c2 3c
       0.039361563 0.04703478 -0.031033074 0.023746837
000070 e0 28 92 ba 2e 94 31 bd fb e2 94 bc a1 5f e9 bc
       -0.0011151098 -0.043354206 -0.018174639 -0.028487982
000080 0d 49 e0 bc df 1f 08 bd 67 43 1f 3d 8c d2 71 3c
       -0.027378583 -0.03323352 0.03888264 0.014759671
000090 e1 77 38 bd 49 fe 1d bd 38 09 e9 bb 08 33 0d 3c
       -0.0450362 -0.038572583 -0.0071116947 0.008618124
0000a0 b6 76 f5 3c ca 24 32 bd 69 be fb bc 50 21 10 bb
       0.029963832 -0.043492116 -0.030730443 -0.0021992512
0000b0 43 26 f1 bc b0 2c 9c bb 68 e4 06 bc f8 55 fb bb
       -0.02943719 -0.0047660694 -0.008233167 -0.0076701604
0000c0 d9 c0 3f 3d 38 98 5d bc 8d 9d b0 bc 60 dc 4e 3b
       0.046814773 -0.013525061 -0.021559501 0.003156446
0000d0 04 d4 40 bd ac 50 4a bc d8 d3 3b 3c a2 14 9d 3c
       -0.047077194 -0.012348335 0.011464082 0.019174878
0000e0 f4 0e 4e bc fb 53 ea bc e6 91 10 bd 38 55 df 3b
       -0.012576807 -0.028604498 -0.03529539 0.006815579
0000f0 fe 79 b0 3c 20 77 a6 3b 3f 4d 0c 3d 69 d3 40 3d
       0.021542545 0.005080119 0.034253355 0.047076616
000100 60 c8 12 bb d9 01 22 3d 29 f1 36 3d 00 89 e0 b9
       -0.0022397265 0.039552543 0.044663582 -0.00042826682
000110 7c 93 0d bd 60 a3 88 ba ce 4b ed 3c 67 4c 33 3d
       -0.03456448 -0.0010424666 0.02896681 0.043774035
000120 66 01 f1 3c 25 99 ba bc 51 97 3f 3d 54 2f 4a 3c
       0.029419612 -0.022778103 0.046775166 0.0123403855
000130 e9 5a 1d 3d f9 96 3c 3d 08 32 88 bb 80 d3 d4 3b
       0.038416777 0.046042416 -0.004156355 0.0064949393
000140 ef a9 40 bd ba fa b9 3c 90 ca c0 bb 57 c3 17 3d
       -0.04703706 0.022702564 -0.0058835223 0.037051525
000150 02 8c 38 bd 0b d8 1d 3d c1 44 33 bd b9 87 33 3d
       -0.045055397 0.038536113 -0.04376674 0.043830607
000160 93 c4 03 bd eb 59 13 3d a2 bb f6 3c 70 0a 86 bb
       -0.03216989 0.035974424 0.030118767 -0.0040905997
000170 4f 5b 00 3d 39 f7 2f 3d a2 f7 c1 3c 70 dd 00 3c
       0.03133708 0.04296038 0.02367765 0.007865295
000180 8e a4 9d bc 6d 06 3f 3d e1 54 c4 bc 9b 5a 38 3d
       -0.019243505 0.046636987 -0.023966255 0.045008283
000190 00 7e 9e b9 96 99 be 3c 43 55 07 3d 56 e8 d3 3c
       -0.00030229986 0.023266595 0.033040296 0.025867622
0001a0 34 6d a1 bc 20 df 1c bd 88 04 57 bc 74 94 d5 bc
       -0.019705392 -0.038298726 -0.013123639 -0.026071765
0001b0 14 91 32 3c 57 d5 11 3d f1 8e 0d bd e2 0d bf 3c
       0.010898847 0.035603847 -0.034560148 0.02332205
0001c0 23 a7 12 3d 58 13 30 bc 5a 31 0b bd 40 0f 6c bc
       0.035803925 -0.010746799 -0.033982612 -0.014407933
0001d0 c0 87 3b 3b 6e d8 97 3c 64 28 69 bc 48 37 8f bc
       0.002861485 0.018535819 -0.014230821 -0.017482415
0001e0 3d f3 41 3d e6 4f 01 bd 1d 9b 2d 3d a6 91 8a 3c
       0.04735111 -0.031570338 0.042384256 0.016915154
0001f0 2b 29 0a 3d 1a bf f8 bc 24 e0 02 3c d9 42 24 3d
       0.033730667 -0.030364562 0.00798801 0.040102813
000200 19 92 1a 3d bc f9 54 bc b0 bb 98 3b 57 33 3c bd
       0.037736986 -0.012998994 0.004661046 -0.0459474
000210 ea df d0 3c 10 aa 86 bb a0 f0 d0 3a e9 94 3d 3d
       0.025497396 -0.0041096285 0.0015940852 0.04628459
000220 44 6e 7c bc 00 93 73 39 e0 81 97 3b 65 22 1f 3d
       -0.015407149 0.00023229048 0.0046236366 0.03885116
000230 16 53 f3 3c 84 dc 9c bc 85 41 e7 bc 0f 50 9f bc
       0.029702704 -0.019148119 -0.028229484 -0.019447355
000240 15 dd f2 bc 14 35 57 3c 53 df 0d bd 4e 06 cc 3c
       -0.029646436 0.013135213 -0.034636807 0.02490535
000250 fe 0f 41 bd 9e 75 ab 3c 7e 9d b9 3c 17 a4 43 bd
       -0.047134392 0.020930108 0.022658106 -0.04776391
000260 3a db fc 3c 25 a0 fe bc 1e 14 c9 bc 7d d5 3d 3d
       0.030866254 -0.031082222 -0.024545725 0.046346176
000270 f9 08 15 3d 26 55 b8 bc 3a fc 9c 3c 74 c6 4b bc
       0.03638551 -0.02250154 0.01916324 -0.012437452
000280 b0 22 06 3b d2 c1 c2 3c 2b b6 e5 bc e5 05 1d 3d
       0.0020467453 0.023774061 -0.028040966 0.0383357
000290 b8 eb 2b bd 62 fa f0 3c 94 b7 f9 bc 1e 86 ac 3c
       -0.041972846 0.029416267 -0.030483045 0.021060046
0002a0 4e f6 e0 3c bc 75 12 bd 5e b0 8e 3c a0 76 8e bb
       0.027461197 -0.03575681 0.017418083 -0.0043476373
0002b0 a9 ca 13 bd b5 20 fe bc ea 44 26 bd 00 db 93 3b
       -0.036081944 -0.031021455 -0.040593065 0.004512191
0002c0 b0 2b dc bb 78 35 24 3c 3f b7 b6 bc 81 f7 1a 3d
       -0.006719075 0.010022514 -0.022304175 0.037833694
0002d0 c6 0c b2 3c db e9 26 bd 80 cf 5c 3a c6 09 00 bd
       0.021734606 -0.040750366 0.0008423254 -0.03125932
0002e0 b0 29 71 3b f4 29 4e 3c 80 a4 71 ba 65 12 1a 3d
       0.003679853 0.012583245 -0.0009217933 0.0376152
0002f0 13 9e 44 3d 7f ac 3a bd f0 9d 8e 3b f6 5d ab bc
       0.048002314 -0.04557466 0.0043523237 -0.020918828
000300 08 20 c6 bb 58 fc 27 3c 50 37 0d bc f2 8c f2 3c
       -0.006046299 0.0102530345 -0.008619145 0.029608224
000310 cd 31 19 3d b6 3b 92 3c a5 dc 2f bd 57 4e 2c 3d
       0.03740101 0.017850738 -0.042935032 0.0420669
000320 1e 76 b1 bc 40 49 e3 bb e8 a0 c3 bb 56 c0 84 3c
       -0.021662768 -0.0069362223 -0.0059701093 0.016204994
000330 57 cd 0f 3d 68 7d 8d 3b cc 50 6e bc 56 4a da 3c
       0.035107937 0.004317928 -0.014545631 0.026646774
000340 31 b6 fe bc 30 fd 42 bd a3 24 f3 bc 76 53 83 3c
       -0.031092735 -0.04760474 -0.029680556 0.016031008
000350 e5 ee 93 bc d5 12 b0 bc 14 9c 2e bd 23 35 26 3d
       -0.01805825 -0.021493355 -0.042629316 0.04057802
000360 95 38 0e 3d 16 9f eb 3c f4 80 a8 bc dc be 53 bc
       0.03472193 0.028762382 -0.020569302 -0.012923922
000370 f4 18 51 bc 0e 6d 98 3c 20 c4 68 bb 6f 9d 20 3d
       -0.012762297 0.018606689 -0.003551729 0.03921264
000380 2e 4a 89 3c c3 b1 04 3d 40 4e 9f bb e8 37 26 bd
       0.016759004 0.03239609 -0.004861623 -0.04058066
000390 43 f4 a2 bc 6a 63 9b 3c 58 ba 54 bc 44 36 1d 3c
       -0.019891864 0.018968303 -0.012983881 0.009595457
0003a0 18 9a a3 bc c0 df 6c bc 36 83 cf 3c d8 6b 02 bd
       -0.019970939 -0.014457643 0.025331121 -0.03184113
0003b0 74 7d 12 3c 12 b9 c7 3c c4 ee 16 bc ce 7b 85 3c
       0.008941043 0.02438024 -0.0092122 0.016294386
0003c0 f0 e3 75 bb 80 58 90 39 58 1d 4a 3c fd 75 8a bc
       -0.0037519895 0.00027531758 0.012336098 -0.016901964
0003d0 80 16 59 3b 1c 85 53 3c 14 62 39 bc f7 94 16 3d
       0.0033124983 0.012910154 -0.011314888 0.036763158
0003e0 88 5a 2b bd 29 4e 2f bd 04 16 5e bc a8 79 dc bc
       -0.041834384 -0.04279915 -0.013555054 -0.026913479
0003f0 10 47 6c 3b 95 6c 3a 3d 3c c7 20 bc 50 a1 66 3c
       0.0036053099 0.04551371 -0.009813126 0.014076546

res_block_1.0.Conv.bias f4 [48]
000000 fc 31 09 bd 4e 89 33 bd 80 78 ef b9 86 44 07 bd
       -0.033494934 -0.043832116 -0.00045675412 -0.033024333
000010 18 30 d3 3b c1 5f 31 3d 50 6e f7 bb 02 c4 32 bd
       0.006444942 0.04330421 -0.007550992 -0.04364396
000020 ae f7 80 3c c8 98 56 bc fc 49 0c 3c 32 a5 87 3c
       0.015743103 -0.013097949 0.008562561 0.016558263
000030 62 cf e0 bc 9c b8 16 bd 39 ff 3c bd 02 15 e1 3c
       -0.027442638 -0.03679715 -0.046141837 0.027475838
000040 e8 f0 f5 bb 34 51 02 bd fa 5d 42 bd 1c 8f 70 bc
       -0.007505525 -0.031815723 -0.047452904 -0.014682557
000050 1c c2 45 bc 26 a2 e6 bc 2c ec 89 bc 47 b4 44 3d
       -0.012070205 -0.02815349 -0.016836248 0.04802349
000060 d2 89 b3 bc 87 a1 31 3d 5c 55 1b bc 2f 1e 24 bd
       -0.021916304 0.043366935 -0.0094808005 -0.040067848
000070 47 98 3c 3d de 5e 88 3c aa 5b 14 bd 15 4a 41 3d
       0.04604366 0.016646799 -0.03622023 0.04718979
000080 8d b3 dd bc 51 70 02 3d 92 07 03 bd eb a2 3c bd
       -0.027063156 0.031845395 -0.03198964 -0.04605381
000090 c6 24 25 bd c0 bb 3d bd 05 07 05 3d b8 1e aa bb
       -0.040318273 -0.04632163 0.032477397 -0.0051916502
0000a0 c0 99 b7 3b 8c fd 37 bd 9f 98 1a bd 88 3f 0e 3c
       0.005603045 -0.044919536 -0.037743207 0.008682139
0000b0 f9 92 3f 3d 25 ed 3a 3d f9 6b 1e 3d 74 79 8e bc
       0.046771023 0.045636315 0.03867719 -0.017391898

res_block_1.1.Conv.weight f4 [48, 48, 3, 3]
000000 e5 e6 13 3d 8e 68 16 bd 06 77 e8 3c 40 19 f0 3b
       0.03610887 -0.036720805 0.028377067 0.007327229
000010 c9 16 9a bc f8 c4 65 bc 5c 5c 20 bd 29 29 8d bc
       -0.018809693 -0.014024012 -0.03915058 -0.01723154
000020 d1 8a 20 bd 46 81 fb 3c a0 4d c1 3a 3b e1 1e 3d
       -0.039194886 0.03070129 0.0014747865 0.038789015
000030 8e 5e da 3c e7 08 1a 3d 58 a9 35 bc d8 0d df bc
       0.026656415 0.037606146 -0.011087738 -0.02722828
000040 de 76 99 3c 8a cf 9c 3c 20 c7 0b bb 40 af 33 bb
       0.018733438 0.019141931 -0.0021328405 -0.002741769
000050 60 72 d6 bb 27 d1 a7 bc 00 8a d1 b9 3f cd 2e 3d
       -0.0065443963 -0.020485474 -0.00039966404 0.042676207
000060 55 75 2c bd 3e 4f b2 3c ac b9 15 bd 70 72 0f bd
       -0.042104084 0.021766301 -0.036554024 -0.035021245
000070 ff 61 1b bd cb 76 3a 3d 37 9c c0 bc e9 e3 a1 bc
       -0.037935253 0.045523446 -0.023511989 -0.019761996
000080 3f a9 f1 bc 02 81 a9 bc 2d 01 3e 3d 0b b0 33 3d
       -0.029499648 -0.020691399 0.04638784 0.04386906
000090 50 6f db bb c3 be 36 3d c0 d8 41 3c d0 e9 da 3b
       -0.006696619 0.04461552 0.011831462 0.0066807047
0000a0 96 d3 e8 bc a4 f0 36 bd 20 8e 58 3b 10 76 f4 bc
       -0.028421205 -0.044663087 0.0033043697 -0.029841453
0000b0 bb fd 39 3d 80 93 cd 3b 84 67 13 bd c3 3a 12 3d
       0.04540799 0.006273687 -0.035987392 0.03570057
0000c0 50 84 d7 bc f9 de 41 bd df d5 2c 3d 67 3a 35 3d
       -0.026308209 -0.047331784 0.04219615 0.04424515
0000d0 73 c8 2e 3d 13 d2 2f 3d fd 91 b1 bc 95 35 19 3d
       0.042671632 0.04292495 -0.021676058 0.037404615
0000e0 34 49 7a 3c 52 b7 fb 3c 60 3a 00 3b 19 c9 0e 3d
       0.015276242 0.030727062 0.0019566044 0.03485975
0000f0 cf 24 19 bd 18 d8 6f bc 1e d8 91 3c ab 9b 1b 3d
       -0.03738862 -0.014638923 0.017803248 0.037990253
000100 7d fd 28 3d 5f f9 3d bd c0 3f 53 3c da 02 f0 3c
       0.04125737 -0.046380397 0.012893617 0.029298235
000110 6e 69 81 3c 7a 23 9c 3c eb dc 32 bd ba fd db 3c
       0.015797343 0.019059885 -0.043667715 0.026854385
000120 b0 76 0f 3b 98 44 0b bd 6e 69 89 3c 1e 43 08 bd
       0.0021890812 -0.034000963 0.016773906 -0.033267133
000130 0d 8f 91 bc 7f 9f 40 3d d9 0e 1c 3d 56 3c e6 3c
       -0.017768407 0.047027107 0.038100097 0.028104942
000140 20 9c 05 bb cc 41 5e 3c b8 b4 2a 3c 69 95 24 bd
       -0.0020387247 0.013565492 0.010419063 -0.04018155
000150 a0 57 0c bc fb b0 27 bd fc 4f ab bc 38 39 3f 3c
       -0.008565813 -0.040940266 -0.020912163 0.011671357
000160 68 87 fd 3b 37 c4 17 3d 7a 86 41 bd ed 10 3c 3d
       0.007737089 0.03705236 -0.047247387 0.04591458
000170 c0 be c4 3b 86 f4 03 bd 1b 75 94 bc b9 84 14 3d
       0.0060041845 -0.032215618 -0.018122246 0.036259387
000180 77 f8 06 3d 30 c5 83 bb 08 8b 3b bd db 96 96 bc
       0.0329518 -0.0040213093 -0.045786887 -0.01838248
000190 a0 9d db bc 22 87 d0 3c 00 f4 c0 ba 80 73 f7 3a
       -0.02680856 0.025455061 -0.0014721155 0.0018879026
0001a0 85 77 18 3d c3 f9 fa bc 5b ff 3e bd bc b9 90 bc
       0.037223358 -0.030636674 -0.046630245 -0.01766669
0001b0 e0 b6 52 bb ca c6 f5 3c 68 05 2c bd 64 c6 1a bc
       -0.003215246 0.030002017 -0.041997343 -0.009446714
0001c0 40 67 fd ba 4d f3 eb bc c6 29 b8 bc b0 77 59 3b
       -0.0019333139 -0.028802538 -0.022480857 0.0033182912
0001d0 c6 41 c9 3c 8c 99 7c 3c 10 54 5c 3b 8e 71 ad bc
       0.024567496 0.015417468 0.003361944 -0.021172311
0001e0 9f e6 12 3d de ab 10 bd b0 b3 5e bb b0 af d5 bb
       0.03586447 -0.035320155 -0.0033981614 -0.0065211877
0001f0 8b 48 08 bd 6a 81 cf 3c d4 6a 4b bc f3 ce 9c bc
       -0.033272307 0.025330264 -0.0124156065 -0.01914165
000200 62 87 a8 3c 59 a3 c9 bc ce 93 23 bd 3e aa fc 3c
       0.020572368 -0.024614023 -0.03993588 0.030842897
000210 35 c7 13 3d 30 64 d2 3b 84 33 75 3c 50 ed 14 bd
       0.03607865 0.0064206347 0.014965896 -0.03635913
000220 84 a2 12 3c 90 55 d0 bb 77 7e 30 bd 58 5d 53 bc
       0.00894988 -0.006357856 -0.043089356 -0.012900673
000230 03 50 ca bc 3a d3 c3 bc fe fb ef 3c cc 38 7d 3c
       -0.024696356 -0.023904432 0.029294964 0.015455436
000240 4e c0 c0 3c 58 88 88 bc 37 ed 41 bd 48 d7 bf bb
       0.023529198 -0.016666576 -0.047345366 -0.005854521
000250 1e b7 f2 3c 12 cb a4 bc e4 97 f8 bc 52 bb eb bc
       0.029628333 -0.020116363 -0.030345865 -0.028775845
000260 72 8f b7 3c d1 5c eb bc d2 53 dc 3c 2c f4 5e 3c
       0.022407267 -0.028730782 0.026895437 0.01360802
000270 98 36 3c 3c 9a 88 d9 3c d7 83 32 3d 72 0f e0 3c
       0.011487626 0.026554395 0.043582764 0.027351115
000280 a2 c4 98 3c ff e9 29 3d eb 01 1c bd 51 1a 44 3d
       0.01864845 0.04148292 -0.038087767 0.04787666
000290 9a f6 e9 3c a2 48 a0 bc ee 49 eb 3c b0 c8 5b 3c
       0.028559972 -0.019565884 0.028721776 0.013414547
0002a0 98 28 a4 bb f4 0a 62 bc d7 40 16 3d 48 78 8a 3b
       -0.005009722 -0.013796557 0.03668293 0.0042257644
0002b0 49 09 06 3d 4f 86 1e 3d aa 57 be bc f5 00 18 bd
       0.0327237 0.038702305 -0.02323516 -0.037110288
0002c0 6f 48 da bc 23 4e 23 bd 88 a1 e0 bb 53 28 27 3d
       -0.026645867 -0.03986944 -0.0068551935 0.04080994
0002d0 8d 19 15 3d 74 02 0d bd 5e 87 d4 3c 6c 0b ed bc
       0.03640132 -0.034426168 0.025943454 -0.02893611
0002e0 94 39 1c bd b3 13 36 bd 5e 68 b7 3c a8 05 10 bd
       -0.03814085 -0.04445238 0.022388633 -0.035161644
0002f0 e6 52 04 bd 39 77 0b 3d 7e 83 b8 3c 06 7c 98 bc
       -0.03230562 0.034049246 0.022523638 -0.018613826
000300 2e 99 d8 3c 0e 16 37 bd 84 41 84 bc 46 ef ce 3c
       0.02644023 -0.044698767 -0.016144522 0.025260579
000310 27 26 1a 3d 94 16 38 bd d4 17 5b bc 80 56 80 bc
       0.03763404 -0.044943407 -0.01337238 -0.015666246
000320 3d 69 35 bd b0 c1 da bb dc 8c 7e bc 12 90 dc 3c
       -0.044289816 -0.0066759214 -0.015536513 0.026924167
000330 1c 5e 1e 3c a8 e9 fe bb be f7 0f bd b9 5e 03 3d
       0.009665992 -0.007779319 -0.035148375 0.032072756
000340 a9 59 40 3d 50 d8 57 3c bf 35 2a 3d 30 c3 55 3b
       0.046960507 0.0131741315 0.041555163 0.0032617562
000350 22 10 05 bd 86 49 aa 3c be 05 96 3c 05 46 b7 bc
       -0.03248609 0.020787012 0.018313285 -0.022372255
000360 50 cd 50 bb cf f1 fb bc 6f d8 32 3d 48 5a ef bb
       -0.0031860657 -0.030754952 0.04366344 -0.0073044635
000370 db 4f 0d 3d 63 2d 22 3d d6 5f fc 3c c4 fd 79 3c
       0.034499984 0.039594065 0.030807417 0.015258256
000380 21 55 1a 3d 00 29 f9 39 f8 ac 96 3b 8c de 41 bc
       0.03767884 0.00047523528 0.004598256 -0.0118328445
000390 9d 57 18 3d c0 c2 28 bd 46 ca df bc 08 dc 5b 3c
       0.03719293 -0.041201353 -0.027318131 0.013419159
0003a0 5d 7c 1c bd cf 32 0d 3d 4f 94 11 bd 5d a9 33 bd
       -0.03820454 0.034472283 -0.03554183 -0.04386269
0003b0 d9 88 e5 bc 72 c3 17 bd 20 8e 3a bc 70 c5 bb bc
       -0.028019356 -0.037051626 -0.011386424 -0.022921294
0003c0 00 db 1c bd b4 db cf bc 80 ce d5 3b a7 62 f1 bc
       -0.038294792 -0.025373317 0.006524861 -0.029465986
0003d0 20 88 4e bc a0 67 aa 3b f4 cf e1 bc 98 b4 a8 3b
       -0.012605697 0.0052003413 -0.02756498 0.0051484816
0003e0 97 6a 33 bd f2 e4 1e bd 34 1a 1e bc 12 5c cc 3c
       -0.043802824 -0.038792558 -0.009649802 0.024946246
0003f0 ff ab 18 3d 33 52 ff bc c0 03 bb bc 50 5c f1 3b
       0.037273403 -0.031167125 -0.022828937 0.007365741

res_block_1.1.Conv.bias f4 [48]
000000 bf f9 1a 3d fe fe de 3c 11 0e 38 3d 28 c2 23 3c
       0.037835833 0.0272212 0.04493529 0.009995021
000010 d7 ec 07 bd 68 54 43 bc 9e ae de bc 80 d8 a9 ba
       -0.033184852 -0.0119219795 -0.027182873 -0.0012958199
000020 d0 84 00 bd ea 6c 26 bd cb 27 3e 3d 5a fb ae 3c
       -0.03137666 -0.040631212 0.04642467 0.021360088
000030 d3 df 05 bd ff 9a 2c 3d e5 4a 0e 3d fa 6a 92 bc
       -0.03268416 0.042140003 0.034739394 -0.017873276
000040 80 f3 81 ba b3 ea e0 bc de c5 38 bd 4e 60 90 3c
       -0.0009914488 -0.027455663 -0.045110576 0.017624047
000050 49 fe 2b bd 70 17 50 bb ae f7 ec 3c 76 80 83 3c
       -0.041990552 -0.003175225 0.028926697 0.016052466
000060 b6 cc c3 3c b8 60 cc 3b a4 a6 56 3c c1 ac 0c 3d
       0.023901325 0.0062371157 0.013101254 0.03434444
000070 4a 9c db 3c 30 ec 4c 3c b0 73 76 3b f4 74 7d bc
       0.026807923 0.012507483 0.0037605576 -0.015469778
000080 c0 28 2c bd 89 d0 19 3d 23 37 c8 bc 53 b6 17 3d
       -0.04203105 0.03755239 -0.024440354 0.037039112
000090 d8 64 ff bb ee 3b ea 3c f8 4b 27 bc c8 10 24 3c
       -0.007794004 0.02859303 -0.010210983 0.010013767
0000a0 27 bd 10 3d 63 bc 10 bd 62 d6 b0 bc 7a 9a 94 3c
       0.03533664 -0.03533591 -0.0215866 0.018140066
0000b0 12 11 9d 3c 03 0c 0b 3d 80 f7 ac bb a6 14 c5 3c
       0.019173179 0.033947002 -0.0052785277 0.024057698

res_block_2.0.Conv.weight f4 [48, 48, 3, 3]
000000 21 34 0f 3d 00 8c 88 bc ee b1 c6 3c c5 24 9f bc
       0.034961823 -0.01666832 0.024254765 -0.019426713
000010 22 48 90 3c 03 9f 13 3d 00 c0 dd b8 4a 47 25 bd
       0.01761252 0.036040317 -0.00010573864 -0.04035119
000020 96 3b 36 bd 80 ac c9 bb 89 b3 2b 3d ca 95 d5 bc
       -0.04449042 -0.006154597 0.041919265 -0.026072402
000030 60 e5 9b 3b 99 b9 c7 bc ce c7 d9 3c 46 1c 19 bd
       0.0047575682 -0.024380492 0.026584532 -0.03738048
000040 e8 95 ab bb ab b3 2a 3d 80 04 15 bb 3f df 30 3d
       -0.005236376 0.04167525 -0.0022738278 0.043181654
000050 91 29 11 3d 64 d3 9b bc 1b dc 3d bd 68 98 06 bd
       0.03544003 -0.019021697 -0.046352487 -0.03286019
000060 be ed cd 3c df fc f5 bc 0b 6b 3c bd 76 c6 ff 3c
       0.025137778 -0.030027805 -0.04600052 0.031222563
000070 36 37 b1 bc c3 59 00 bd 4e 9e 2b bd dd 4c 2f 3d
       -0.021632772 -0.031335603 -0.041899018 0.042797912
000080 68 02 82 bc a8 42 e6 bb d6 46 c5 bc 3f e5 39 3d
       -0.015870288 -0.007026989 -0.024081629 0.04538464
000090 05 e0 40 bd 98 f2 96 bc e7 87 a0 bc 02 c5 0b bd
       -0.04708864 -0.018426225 -0.019596053 -0.03412343
0000a0 6b 94 3f 3d 0a e5 b9 3c 20 2a 11 bd 2e b9 86 3c
       0.0467724 0.022692222 -0.035440564 0.016445722
0000b0 00 49 5b 39 90 62 d5 bc 57 ab f3 bc ec 85 2f 3c
       0.00020912662 -0.026047975 -0.029744787 0.010713082
0000c0 5b ec 14 3d c0 fd 70 3a f4 6e 28 3c 23 61 c4 bc
       0.03635822 0.0009193085 0.01028036 -0.0239721
0000d0 70 c2 27 bc 40 01 13 bc 06 9f b4 3c c0 da 3e bb
       -0.010239229 -0.008972466 0.022048485 -0.0029122084
0000e0 0f ec d4 bc b4 49 4e 3c e7 e8 11 3d d0 85 9a 3b
       -0.025991468 0.012590814 0.035622504 0.0047156587
0000f0 04 d1 5d 3c 98 48 03 3c e7 ff 0c bd 35 68 40 bd
       0.013538603 0.008012913 -0.034423735 -0.04697438
000100 a7 da 0a 3d 40 14 22 bd 24 56 42 bd 10 d7 25 bd
       0.03389993 -0.039570093 -0.04744543 -0.040488303
000110 f0 eb 64 bb 1d 62 29 bd 40 6d 01 bd 3a e6 bb 3c
       -0.0034930669 -0.041353334 -0.03159833 0.022936929
000120 2d 20 b6 bc 4e 6f a0 3c 60 20 47 bb 02 56 af 3c
       -0.02223214 0.019584324 -0.0030384287 0.021403316
000130 d5 4d 31 3d c9 98 42 3d 76 7e a0 3c 60 7e 77 bc
       0.043287117 0.04750899 0.019591551 -0.015105814
000140 16 a5 2d bd 80 47 21 3a 2e 9a de 3c d1 1f 39 bd
       -0.042393766 0.0006152317 0.027173128 -0.045196358
000150 da 77 c4 3c b6 b8 a9 3c a0 e0 be 3b 74 0c 43 bc
       0.02398293 0.02071796 0.005825117 -0.0119048245
000160 d9 e6 1c bd 00 60 4e 3c f2 e3 9e 3c 54 36 04 bd
       -0.03830609 0.01259613 0.019395802 -0.032278374
000170 12 a7 b5 3c 4e c5 c9 3c 37 28 01 3d 26 82 d9 bc
       0.022174392 0.024630215 0.031532492 -0.026551317
000180 a4 1a 1b 3c fa 7a fb 3c 5f 78 32 3d 2d 4e 15 3d
       0.009466801 0.030698288 0.043571826 0.036451507
000190 74 54 1a bd f0 83 06 3c 4c bb 5c 3c 85 d2 3c 3d
       -0.037678197 0.008210167 0.013472389 0.046099205
0001a0 eb ba 1f bd 77 c7 11 3d a0 14 0f 3b ba db cb bc
       -0.03899662 0.035590615 0.0021832362 -0.024885047
0001b0 60 e6 a8 bb ba 78 06 bd 81 47 1a bd 40 f3 4e 3c
       -0.005154416 -0.032829978 -0.037665848 0.0126312375
0001c0 bd 4b 11 3d 0e 3f b9 3c 24 68 2c bc 13 d9 9c bc
       0.03547262 0.022613075 -0.010522876 -0.019146478
0001d0 de 38 bd bc 1c 95 7d 3c 0f 12 39 3d 12 1f 93 bc
       -0.023098405 0.015477445 0.045183238 -0.017959151
0001e0 a0 c9 e3 3b df 3f 27 3d ea 5c af 3c c4 75 b4 bc
       0.006951526 0.040832397 0.02140661 -0.022028811
0001f0 de 16 e6 3c f2 bc f6 bc fb d8 fb bc 50 58 d3 3b
       0.028087076 -0.030119393 -0.030743113 0.0064497367
000200 20 74 ab 3a 1c 12 2e bc de 59 89 3c f8 c8 05 bc
       0.0013080873 -0.010624435 0.016766485 -0.00816559
000210 a2 5a f1 bc 62 49 a8 bc 14 62 45 bc 8b 50 3d bd
       -0.029462162 -0.020542804 -0.012047309 -0.04621939
000220 f0 c0 a5 bc 4e f5 dc bc 17 fc 14 3d 11 df e7 bc
       -0.020233601 -0.02697244 0.036373224 -0.028304609
000230 c3 70 03 3d 67 73 f7 bc 30 4f 9c 3b c8 93 32 bd
       0.03208996 -0.030206395 0.004770182 -0.043597966
000240 f6 8e 97 3c 78 8f 40 3c 00 08 7e b8 10 78 2f bb
       0.018500786 0.011752956 -6.056577e-05 -0.0026774444
000250 e2 65 0f bd f8 84 bd 3b bb ef d8 bc 90 c5 1e bc
       -0.035009272 0.0057836734 -0.0264815 -0.009690657
000260 52 1c f1 3c 10 96 3e bb bc 3e 28 3c 79 43 0c 3d
       0.02943245 -0.0029081143 0.010268863 0.034244034
000270 26 bd c1 3c b4 a0 42 bd bc b8 02 3c 77 26 03 bd
       0.023649763 -0.04751654 0.007978614 -0.032019105
000280 fb 3b 08 3d 61 ab 3f 3d 4a a7 f3 3c ac 3a 5a bc
       0.033260327 0.0467943 0.029742856 -0.0133196525
000290 91 1f 38 bd 96 02 fb 3c e2 c1 c5 3c 70 31 76 bc
       -0.04495198 0.030640882 0.024140302 -0.015026435
0002a0 3c 78 3d 3c e6 77 20 bd b8 0a f2 3b 9a 62 17 bd
       0.011564311 -0.039176844 0.0073865317 -0.03695927
0002b0 80 a5 85 bc a5 96 2a 3d 86 e4 83 bc b1 81 1f 3d
       -0.016314268 0.041647572 -0.01610018 0.038942043
0002c0 e0 b0 bc bc e2 12 3d bd 91 a6 18 bd 4e 89 cc bc
       -0.02303356 -0.046160586 -0.037268225 -0.024967816
0002d0 f0 9d e0 bb 42 fa ad 3c e9 78 35 3d 37 21 00 3d
       -0.006854765 0.021237496 0.044304762 0.031281676
0002e0 8f fc e9 bc e5 d4 2a 3d 05 84 9b bc 50 18 5d bb
       -0.028562812 0.04170694 -0.01898385 -0.0033736415
0002f0 80 ba f6 bb 98 d6 31 bc 20 fd e3 3a 40 05 4f 3a
       -0.0075295568 -0.010854386 0.0017394163 0.00078972057
000300 52 cc b4 3c c4 33 64 3c 40 e1 26 3c 64 42 43 bd
       0.022070084 0.0139283575 0.01018554 -0.047670737
000310 52 0d cc 3c 10 69 b1 bb f8 8b 8e 3b 80 2a df 3a
       0.024908695 -0.0054141358 0.0043501817 0.0017026216
000320 24 98 69 bc 48 66 aa 3b 80 24 dd 3b 27 74 2a bd
       -0.014257465 0.005200181 0.006748736 -0.041614678
000330 d2 55 00 bd 98 1d 88 bb 24 2e 64 3c a4 97 ee bc
       -0.031331845 -0.0041539185 0.013927016 -0.029125042
000340 2c 35 11 bd 48 17 58 3c c7 b5 34 3d 84 32 00 bc
       -0.0354511 0.013189144 0.04411867 -0.007824544
000350 97 ec a4 bc 52 e3 b8 bc c6 b9 f1 3c 88 10 c7 3b
       -0.020132346 -0.022569332 0.029507529 0.0060749687
000360 28 42 e3 bc 36 94 81 bc f9 51 02 3d 36 b1 aa bc
       -0.027741507 -0.015817743 0.031816456 -0.020836454
000370 72 3e 0a bd 46 ad a1 3c 80 e6 7f 3b 5c ca 33 bd
       -0.03375096 0.019735944 0.00390473 -0.043894157
000380 8f 08 2d 3d a8 ea 16 bd b9 d4 28 bd 14 34 92 bc
       0.04224449 -0.03684488 -0.041218493 -0.017847098
000390 44 89 41 3c 00 95 f6 bc 00 c5 65 3c 8e 16 f3 bc
       0.011812512 -0.030100346 0.014024019 -0.02967384
0003a0 10 78 7a bb 64 ba 36 bc cb 6f 29 3d ee 04 bc 3c
       -0.0038218535 -0.011152837 0.04136638 0.02295157
0003b0 2f 61 a2 bc ae 99 e3 3c b8 92 16 bd a1 47 21 bd
       -0.019821731 0.027783241 -0.036761016 -0.03937495
0003c0 e0 13 4b bb fe d4 1b bd 77 be 41 3d 40 21 24 3c
       -0.0030987188 -0.038044922 0.047300782 0.010017693
0003d0 fc a1 11 bd c3 b8 3c 3d 18 de a7 bc 1e da 87 3c
       -0.03555487 0.04607464 -0.020491645 0.016583499
0003e0 f3 0f 18 bd 58 d6 ec bb a6 cd ae 3c c1 6b 0c 3d
       -0.037124585 -0.0072277 0.021338295 0.03428245
0003f0 4c 1e 02 3c fa 9e 81 bc 20 9c 3e 3b 24 72 48 3c
       0.007941794 -0.015822876 0.0029084757 0.0122342445

res_block_2.0.Conv.bias f4 [48]
000000 d0 fc 7a bc 6c f3 00 bd 5a 36 c1 3c 28 40 8c bb
       -0.015319064 -0.031482145 0.023585487 -0.004280109
000010 38 5e bd 3b e8 13 f7 3b dc f8 82 bc 42 03 d0 3c
       0.005779054 0.007540215 -0.015987806 0.025392178
000020 11 e9 cb bc 28 7b cc bb ec 4b da bc be b8 d2 3c
       -0.024891408 -0.0062402673 -0.02664753 0.025722858
000030 14 b1 7b bc 63 6c 1f bd 17 35 06 3d 3d 7d 35 3d
       -0.015362043 -0.038921725 0.032765474 0.04430889
000040 1e 87 3d bd e4 53 0f 3c 38 50 19 bc 60 d6 58 3b
       -0.046271436 0.008748028 -0.009357505 0.0033086762
000050 dc dc 24 3c 22 c7 87 3c 4f 68 16 3d 39 12 2e bd
       0.010062423 0.016574446 0.03672057 -0.042497847
000060 27 7f f0 bc 3f a5 20 3d f4 a5 37 3c 3b a5 02 3d
       -0.029357506 0.03922009 0.011209 0.031895857
000070 87 f8 29 3d 3e 7f d3 3c 25 f3 0c 3d 58 cd 3d 3c
       0.04149678 0.02581751 0.03441157 0.011584602
000080 94 58 0d bd f7 06 cc bc 0b 29 17 3d 20 d0 94 3a
       -0.034508303 -0.024905665 0.036904376 0.001135353
000090 93 87 22 3d 8a f6 35 bd c0 5b bf 3b c8 f4 f0 bb
       0.039680075 -0.04442457 0.005839795 -0.007353399
0000a0 20 82 9a 3a 40 7d cc 3b a0 b0 aa bb 91 7e bb bc
       0.0011788048 0.006240517 -0.0052090436 -0.0228875
0000b0 dc 96 19 bc 82 7f b0 3c 18 82 41 bc ce 00 e1 bc
       -0.009374347 0.021545175 -0.011810802 -0.027466204
